{"format": "graph-model", "generatedBy": "2.5.0", "convertedBy": "TensorFlow.js Converter v3.7.0", "signature": {"inputs": {"labels": {"name": "progan/labels_in:0", "dtype": "DT_FLOAT", "tensorShape": {"dim": [{"size": "-1"}, {"size": "0"}]}}, "latents": {"name": "progan/latents_in:0", "dtype": "DT_FLOAT", "tensorShape": {"dim": [{"size": "-1"}, {"size": "512"}]}}}, "outputs": {"concat": {"name": "progan/Run/concat/concat:0", "dtype": "DT_FLOAT", "tensorShape": {"dim": [{"size": "-1"}, {"size": "3"}, {"size": "1024"}, {"size": "1024"}]}}}}, "modelTopology": {"node": [{"name": "progan/ToRGB_lod8/weight", "op": "Const", "attr": {"value": {"tensor": {"dtype": "DT_FLOAT", "tensorShape": {"dim": [{"size": "1"}, {"size": "1"}, {"size": "512"}, {"size": "3"}]}}}, "dtype": {"type": "DT_FLOAT"}}}, {"name": "progan/ToRGB_lod8/bias", "op": "Const", "attr": {"value": {"tensor": {"dtype": "DT_FLOAT", "tensorShape": {"dim": [{"size": "3"}]}}}, "dtype": {"type": "DT_FLOAT"}}}, {"name": "progan/Run/progan/Less", "op": "Const", "device": "/device:CPU:0", "attr": {"value": {"tensor": {"dtype": "DT_BOOL", "tensorShape": {}}}, "dtype": {"type": "DT_BOOL"}}}, {"name": "progan/Run/progan/4x4/Conv/LeakyRelu/alpha", "op": "Const", "device": "/device:CPU:0", "attr": {"value": {"tensor": {"dtype": "DT_FLOAT", "tensorShape": {}}}, "dtype": {"type": "DT_FLOAT"}}}, {"name": "progan/Run/progan/4x4/Dense/LeakyRelu/alpha", "op": "Const", "device": "/device:CPU:0", "attr": {"value": {"tensor": {"dtype": "DT_FLOAT", "tensorShape": {}}}, "dtype": {"type": "DT_FLOAT"}}}, {"name": "progan/Run/progan/concat/axis", "op": "Const", "device": "/device:CPU:0", "attr": {"value": {"tensor": {"dtype": "DT_INT32", "tensorShape": {}}}, "dtype": {"type": "DT_INT32"}}}, {"name": "progan/Run/progan/4x4/PixelNorm/Mean/reduction_indices", "op": "Const", "device": "/device:CPU:0", "attr": {"value": {"tensor": {"dtype": "DT_INT32", "tensorShape": {}}}, "dtype": {"type": "DT_INT32"}}}, {"name": "progan/Run/progan/4x4/PixelNorm/add/y", "op": "Const", "device": "/device:CPU:0", "attr": {"value": {"tensor": {"dtype": "DT_FLOAT", "tensorShape": {}}}, "dtype": {"type": "DT_FLOAT"}}}, {"name": "progan/Run/progan/4x4/Dense/mul", "op": "Const", "device": "/device:CPU:0", "attr": {"value": {"tensor": {"dtype": "DT_FLOAT", "tensorShape": {"dim": [{"size": "512"}, {"size": "8192"}]}}}, "dtype": {"type": "DT_FLOAT"}}}, {"name": "progan/Run/progan/4x4/Dense/Reshape/shape", "op": "Const", "device": "/device:CPU:0", "attr": {"value": {"tensor": {"dtype": "DT_INT32", "tensorShape": {"dim": [{"size": "4"}]}}}, "dtype": {"type": "DT_INT32"}}}, {"name": "progan/Run/progan/4x4/Dense/Reshape_1", "op": "Const", "device": "/device:CPU:0", "attr": {"value": {"tensor": {"dtype": "DT_FLOAT", "tensorShape": {"dim": [{"size": "1"}, {"size": "512"}, {"size": "1"}, {"size": "1"}]}}}, "dtype": {"type": "DT_FLOAT"}}}, {"name": "progan/Run/progan/4x4/Dense/PixelNorm/Mean/reduction_indices", "op": "Const", "device": "/device:CPU:0", "attr": {"value": {"tensor": {"dtype": "DT_INT32", "tensorShape": {}}}, "dtype": {"type": "DT_INT32"}}}, {"name": "progan/Run/progan/4x4/Dense/PixelNorm/add/y", "op": "Const", "device": "/device:CPU:0", "attr": {"value": {"tensor": {"dtype": "DT_FLOAT", "tensorShape": {}}}, "dtype": {"type": "DT_FLOAT"}}}, {"name": "progan/Run/progan/4x4/Conv/transpose/perm", "op": "Const", "device": "/device:CPU:0", "attr": {"value": {"tensor": {"dtype": "DT_INT32", "tensorShape": {"dim": [{"size": "4"}]}}}, "dtype": {"type": "DT_INT32"}}}, {"name": "progan/Run/progan/4x4/Conv/mul", "op": "Const", "device": "/device:CPU:0", "attr": {"value": {"tensor": {"dtype": "DT_FLOAT", "tensorShape": {"dim": [{"size": "3"}, {"size": "3"}, {"size": "512"}, {"size": "512"}]}}}, "dtype": {"type": "DT_FLOAT"}}}, {"name": "progan/Run/progan/4x4/Conv/transpose_1/perm", "op": "Const", "device": "/device:CPU:0", "attr": {"value": {"tensor": {"dtype": "DT_INT32", "tensorShape": {"dim": [{"size": "4"}]}}}, "dtype": {"type": "DT_INT32"}}}, {"name": "progan/Run/progan/4x4/Conv/Reshape", "op": "Const", "device": "/device:CPU:0", "attr": {"value": {"tensor": {"dtype": "DT_FLOAT", "tensorShape": {"dim": [{"size": "1"}, {"size": "512"}, {"size": "1"}, {"size": "1"}]}}}, "dtype": {"type": "DT_FLOAT"}}}, {"name": "progan/Run/progan/4x4/Conv/PixelNorm/Mean/reduction_indices", "op": "Const", "device": "/device:CPU:0", "attr": {"value": {"tensor": {"dtype": "DT_INT32", "tensorShape": {}}}, "dtype": {"type": "DT_INT32"}}}, {"name": "progan/Run/progan/4x4/Conv/PixelNorm/add/y", "op": "Const", "device": "/device:CPU:0", "attr": {"value": {"tensor": {"dtype": "DT_FLOAT", "tensorShape": {}}}, "dtype": {"type": "DT_FLOAT"}}}, {"name": "progan/labels_in", "op": "Placeholder", "attr": {"shape": {"shape": {"dim": [{"size": "-1"}, {"size": "0"}]}}, "dtype": {"type": "DT_FLOAT"}}}, {"name": "progan/latents_in", "op": "Placeholder", "attr": {"shape": {"shape": {"dim": [{"size": "-1"}, {"size": "512"}]}}, "dtype": {"type": "DT_FLOAT"}}}, {"name": "progan/Run/progan/cond/progan/ToRGB_lod8/weight/_55", "op": "Switch", "input": ["progan/ToRGB_lod8/weight", "progan/Run/progan/Less"], "attr": {"T": {"type": "DT_FLOAT"}}}, {"name": "progan/Run/progan/cond/progan/ToRGB_lod8/bias/_56", "op": "Switch", "input": ["progan/ToRGB_lod8/bias", "progan/Run/progan/Less"], "attr": {"T": {"type": "DT_FLOAT"}}}, {"name": "progan/Run/progan/concat", "op": "ConcatV2", "input": ["progan/latents_in", "progan/labels_in", "progan/Run/progan/concat/axis"], "device": "/device:CPU:0", "attr": {"Tidx": {"type": "DT_INT32"}, "T": {"type": "DT_FLOAT"}, "N": {"i": "2"}}}, {"name": "progan/Run/progan/4x4/PixelNorm/Square", "op": "Square", "input": ["progan/Run/progan/concat"], "device": "/device:CPU:0", "attr": {"T": {"type": "DT_FLOAT"}}}, {"name": "progan/Run/progan/4x4/PixelNorm/Mean", "op": "Mean", "input": ["progan/Run/progan/4x4/PixelNorm/Square", "progan/Run/progan/4x4/PixelNorm/Mean/reduction_indices"], "device": "/device:CPU:0", "attr": {"keep_dims": {"b": true}, "Tidx": {"type": "DT_INT32"}, "T": {"type": "DT_FLOAT"}}}, {"name": "progan/Run/progan/4x4/PixelNorm/add", "op": "AddV2", "input": ["progan/Run/progan/4x4/PixelNorm/Mean", "progan/Run/progan/4x4/PixelNorm/add/y"], "device": "/device:CPU:0", "attr": {"T": {"type": "DT_FLOAT"}}}, {"name": "progan/Run/progan/4x4/PixelNorm/Rsqrt", "op": "Rsqrt", "input": ["progan/Run/progan/4x4/PixelNorm/add"], "device": "/device:CPU:0", "attr": {"T": {"type": "DT_FLOAT"}}}, {"name": "progan/Run/progan/4x4/PixelNorm/mul", "op": "Mul", "input": ["progan/Run/progan/concat", "progan/Run/progan/4x4/PixelNorm/Rsqrt"], "device": "/device:CPU:0", "attr": {"T": {"type": "DT_FLOAT"}}}, {"name": "progan/Run/progan/4x4/Dense/MatMul", "op": "MatMul", "input": ["progan/Run/progan/4x4/PixelNorm/mul", "progan/Run/progan/4x4/Dense/mul"], "device": "/device:CPU:0", "attr": {"transpose_b": {"b": false}, "T": {"type": "DT_FLOAT"}, "transpose_a": {"b": false}}}, {"name": "progan/Run/progan/4x4/Dense/Reshape", "op": "Reshape", "input": ["progan/Run/progan/4x4/Dense/MatMul", "progan/Run/progan/4x4/Dense/Reshape/shape"], "device": "/device:CPU:0", "attr": {"T": {"type": "DT_FLOAT"}, "Tshape": {"type": "DT_INT32"}}}, {"name": "progan/Run/progan/4x4/Dense/add", "op": "AddV2", "input": ["progan/Run/progan/4x4/Dense/Reshape", "progan/Run/progan/4x4/Dense/Reshape_1"], "device": "/device:CPU:0", "attr": {"T": {"type": "DT_FLOAT"}}}, {"name": "progan/Run/progan/4x4/Dense/LeakyRelu/mul", "op": "Mul", "input": ["progan/Run/progan/4x4/Dense/add", "progan/Run/progan/4x4/Dense/LeakyRelu/alpha"], "device": "/device:CPU:0", "attr": {"T": {"type": "DT_FLOAT"}}}, {"name": "progan/Run/progan/4x4/Dense/LeakyRelu/Maximum", "op": "Maximum", "input": ["progan/Run/progan/4x4/Dense/LeakyRelu/mul", "progan/Run/progan/4x4/Dense/add"], "device": "/device:CPU:0", "attr": {"T": {"type": "DT_FLOAT"}}}, {"name": "progan/Run/progan/4x4/Dense/PixelNorm/Square", "op": "Square", "input": ["progan/Run/progan/4x4/Dense/LeakyRelu/Maximum"], "device": "/device:CPU:0", "attr": {"T": {"type": "DT_FLOAT"}}}, {"name": "progan/Run/progan/4x4/Dense/PixelNorm/Mean", "op": "Mean", "input": ["progan/Run/progan/4x4/Dense/PixelNorm/Square", "progan/Run/progan/4x4/Dense/PixelNorm/Mean/reduction_indices"], "device": "/device:CPU:0", "attr": {"keep_dims": {"b": true}, "Tidx": {"type": "DT_INT32"}, "T": {"type": "DT_FLOAT"}}}, {"name": "progan/Run/progan/4x4/Dense/PixelNorm/add", "op": "AddV2", "input": ["progan/Run/progan/4x4/Dense/PixelNorm/Mean", "progan/Run/progan/4x4/Dense/PixelNorm/add/y"], "device": "/device:CPU:0", "attr": {"T": {"type": "DT_FLOAT"}}}, {"name": "progan/Run/progan/4x4/Dense/PixelNorm/Rsqrt", "op": "Rsqrt", "input": ["progan/Run/progan/4x4/Dense/PixelNorm/add"], "device": "/device:CPU:0", "attr": {"T": {"type": "DT_FLOAT"}}}, {"name": "progan/Run/progan/4x4/Dense/PixelNorm/mul", "op": "Mul", "input": ["progan/Run/progan/4x4/Dense/LeakyRelu/Maximum", "progan/Run/progan/4x4/Dense/PixelNorm/Rsqrt"], "device": "/device:CPU:0", "attr": {"T": {"type": "DT_FLOAT"}}}, {"name": "progan/Run/progan/4x4/Conv/transpose", "op": "Transpose", "input": ["progan/Run/progan/4x4/Dense/PixelNorm/mul", "progan/Run/progan/4x4/Conv/transpose/perm"], "device": "/device:CPU:0", "attr": {"Tperm": {"type": "DT_INT32"}, "T": {"type": "DT_FLOAT"}}}, {"name": "progan/Run/progan/4x4/Conv/Conv2D", "op": "Conv2D", "input": ["progan/Run/progan/4x4/Conv/transpose", "progan/Run/progan/4x4/Conv/mul"], "device": "/device:CPU:0", "attr": {"dilations": {"list": {"i": ["1", "1", "1", "1"]}}, "T": {"type": "DT_FLOAT"}, "strides": {"list": {"i": ["1", "1", "1", "1"]}}, "data_format": {"s": "TkhXQw=="}, "use_cudnn_on_gpu": {"b": true}, "explicit_paddings": {"list": {}}, "padding": {"s": "U0FNRQ=="}}}, {"name": "progan/Run/progan/4x4/Conv/transpose_1", "op": "Transpose", "input": ["progan/Run/progan/4x4/Conv/Conv2D", "progan/Run/progan/4x4/Conv/transpose_1/perm"], "device": "/device:CPU:0", "attr": {"Tperm": {"type": "DT_INT32"}, "T": {"type": "DT_FLOAT"}}}, {"name": "progan/Run/progan/4x4/Conv/add", "op": "AddV2", "input": ["progan/Run/progan/4x4/Conv/transpose_1", "progan/Run/progan/4x4/Conv/Reshape"], "device": "/device:CPU:0", "attr": {"T": {"type": "DT_FLOAT"}}}, {"name": "progan/Run/progan/4x4/Conv/LeakyRelu/mul", "op": "Mul", "input": ["progan/Run/progan/4x4/Conv/add", "progan/Run/progan/4x4/Conv/LeakyRelu/alpha"], "device": "/device:CPU:0", "attr": {"T": {"type": "DT_FLOAT"}}}, {"name": "progan/Run/progan/4x4/Conv/LeakyRelu/Maximum", "op": "Maximum", "input": ["progan/Run/progan/4x4/Conv/LeakyRelu/mul", "progan/Run/progan/4x4/Conv/add"], "device": "/device:CPU:0", "attr": {"T": {"type": "DT_FLOAT"}}}, {"name": "progan/Run/progan/4x4/Conv/PixelNorm/Square", "op": "Square", "input": ["progan/Run/progan/4x4/Conv/LeakyRelu/Maximum"], "device": "/device:CPU:0", "attr": {"T": {"type": "DT_FLOAT"}}}, {"name": "progan/Run/progan/4x4/Conv/PixelNorm/Mean", "op": "Mean", "input": ["progan/Run/progan/4x4/Conv/PixelNorm/Square", "progan/Run/progan/4x4/Conv/PixelNorm/Mean/reduction_indices"], "device": "/device:CPU:0", "attr": {"keep_dims": {"b": true}, "Tidx": {"type": "DT_INT32"}, "T": {"type": "DT_FLOAT"}}}, {"name": "progan/Run/progan/4x4/Conv/PixelNorm/add", "op": "AddV2", "input": ["progan/Run/progan/4x4/Conv/PixelNorm/Mean", "progan/Run/progan/4x4/Conv/PixelNorm/add/y"], "device": "/device:CPU:0", "attr": {"T": {"type": "DT_FLOAT"}}}, {"name": "progan/Run/progan/4x4/Conv/PixelNorm/Rsqrt", "op": "Rsqrt", "input": ["progan/Run/progan/4x4/Conv/PixelNorm/add"], "device": "/device:CPU:0", "attr": {"T": {"type": "DT_FLOAT"}}}, {"name": "progan/Run/progan/4x4/Conv/PixelNorm/mul", "op": "Mul", "input": ["progan/Run/progan/4x4/Conv/LeakyRelu/Maximum", "progan/Run/progan/4x4/Conv/PixelNorm/Rsqrt"], "device": "/device:CPU:0", "attr": {"T": {"type": "DT_FLOAT"}}}, {"name": "progan/Run/progan/cond/progan/Run/progan/4x4/Conv/PixelNorm/mul/_5", "op": "Switch", "input": ["progan/Run/progan/4x4/Conv/PixelNorm/mul", "progan/Run/progan/Less"], "device": "/device:CPU:0", "attr": {"T": {"type": "DT_FLOAT"}}}, {"name": "progan/Run/progan/cond/then/_0/Less", "op": "Const", "input": ["^progan/Run/progan/4x4/Conv/PixelNorm/mul"], "device": "/device:CPU:0", "attr": {"value": {"tensor": {"dtype": "DT_BOOL", "tensorShape": {}}}, "dtype": {"type": "DT_BOOL"}}}, {"name": "Func/progan/Run/progan/cond/then/_0/input/_100", "op": "NoOp", "input": ["^progan/Run/progan/4x4/Conv/PixelNorm/mul"]}, {"name": "Func/progan/Run/progan/cond/then/_0/input/_101", "op": "NoOp", "input": ["^progan/Run/progan/4x4/Conv/PixelNorm/mul"]}, {"name": "Func/progan/Run/progan/cond/then/_0/input/_102", "op": "NoOp", "input": ["^progan/Run/progan/4x4/Conv/PixelNorm/mul"]}, {"name": "Func/progan/Run/progan/cond/then/_0/input/_103", "op": "NoOp", "input": ["^progan/Run/progan/4x4/Conv/PixelNorm/mul"]}, {"name": "Func/progan/Run/progan/cond/then/_0/input/_104", "op": "NoOp", "input": ["^progan/Run/progan/4x4/Conv/PixelNorm/mul"]}, {"name": "Func/progan/Run/progan/cond/then/_0/input/_105", "op": "NoOp", "input": ["^progan/Run/progan/4x4/Conv/PixelNorm/mul"]}, {"name": "Func/progan/Run/progan/cond/then/_0/input/_106", "op": "NoOp", "input": ["^progan/Run/progan/4x4/Conv/PixelNorm/mul"]}, {"name": "Func/progan/Run/progan/cond/then/_0/input/_107", "op": "NoOp", "input": ["^progan/Run/progan/4x4/Conv/PixelNorm/mul"]}, {"name": "Func/progan/Run/progan/cond/then/_0/input/_108", "op": "Const", "input": ["^progan/Run/progan/4x4/Conv/PixelNorm/mul"], "attr": {"value": {"tensor": {"dtype": "DT_FLOAT", "tensorShape": {"dim": [{"size": "1"}, {"size": "1"}, {"size": "512"}, {"size": "3"}]}}}, "dtype": {"type": "DT_FLOAT"}}}, {"name": "Func/progan/Run/progan/cond/then/_0/input/_109", "op": "Const", "input": ["^progan/Run/progan/4x4/Conv/PixelNorm/mul"], "attr": {"value": {"tensor": {"dtype": "DT_FLOAT", "tensorShape": {"dim": [{"size": "3"}]}}}, "dtype": {"type": "DT_FLOAT"}}}, {"name": "Func/progan/Run/progan/cond/then/_0/input/_110", "op": "Const", "input": ["^progan/Run/progan/4x4/Conv/PixelNorm/mul"], "attr": {"value": {"tensor": {"dtype": "DT_FLOAT", "tensorShape": {"dim": [{"size": "1"}, {"size": "1"}, {"size": "512"}, {"size": "3"}]}}}, "dtype": {"type": "DT_FLOAT"}}}, {"name": "Func/progan/Run/progan/cond/then/_0/input/_111", "op": "Const", "input": ["^progan/Run/progan/4x4/Conv/PixelNorm/mul"], "attr": {"value": {"tensor": {"dtype": "DT_FLOAT", "tensorShape": {"dim": [{"size": "3"}]}}}, "dtype": {"type": "DT_FLOAT"}}}, {"name": "progan/Run/progan/cond/then/_0/Greater", "op": "Const", "input": ["^progan/Run/progan/4x4/Conv/PixelNorm/mul"], "device": "/device:CPU:0", "attr": {"value": {"tensor": {"dtype": "DT_BOOL", "tensorShape": {}}}, "dtype": {"type": "DT_BOOL"}}}, {"name": "Func/progan/Run/progan/cond/then/_0/input/_65", "op": "Const", "input": ["^progan/Run/progan/4x4/Conv/PixelNorm/mul"], "attr": {"value": {"tensor": {"dtype": "DT_FLOAT", "tensorShape": {}}}, "dtype": {"type": "DT_FLOAT"}}}, {"name": "Func/progan/Run/progan/cond/then/_0/input/_66", "op": "NoOp", "input": ["^progan/Run/progan/4x4/Conv/PixelNorm/mul"]}, {"name": "Func/progan/Run/progan/cond/then/_0/input/_67", "op": "NoOp", "input": ["^progan/Run/progan/4x4/Conv/PixelNorm/mul"]}, {"name": "Func/progan/Run/progan/cond/then/_0/input/_68", "op": "NoOp", "input": ["^progan/Run/progan/4x4/Conv/PixelNorm/mul"]}, {"name": "Func/progan/Run/progan/cond/then/_0/input/_69", "op": "NoOp", "input": ["^progan/Run/progan/4x4/Conv/PixelNorm/mul"]}, {"name": "Func/progan/Run/progan/cond/then/_0/input/_70", "op": "NoOp", "input": ["^progan/Run/progan/4x4/Conv/PixelNorm/mul"]}, {"name": "Func/progan/Run/progan/cond/then/_0/input/_71", "op": "NoOp", "input": ["^progan/Run/progan/4x4/Conv/PixelNorm/mul"]}, {"name": "Func/progan/Run/progan/cond/then/_0/input/_72", "op": "NoOp", "input": ["^progan/Run/progan/4x4/Conv/PixelNorm/mul"]}, {"name": "Func/progan/Run/progan/cond/then/_0/input/_73", "op": "NoOp", "input": ["^progan/Run/progan/4x4/Conv/PixelNorm/mul"]}, {"name": "Func/progan/Run/progan/cond/then/_0/input/_74", "op": "NoOp", "input": ["^progan/Run/progan/4x4/Conv/PixelNorm/mul"]}, {"name": "Func/progan/Run/progan/cond/then/_0/input/_75", "op": "NoOp", "input": ["^progan/Run/progan/4x4/Conv/PixelNorm/mul"]}, {"name": "Func/progan/Run/progan/cond/then/_0/input/_76", "op": "NoOp", "input": ["^progan/Run/progan/4x4/Conv/PixelNorm/mul"]}, {"name": "Func/progan/Run/progan/cond/then/_0/input/_77", "op": "NoOp", "input": ["^progan/Run/progan/4x4/Conv/PixelNorm/mul"]}, {"name": "Func/progan/Run/progan/cond/then/_0/input/_78", "op": "NoOp", "input": ["^progan/Run/progan/4x4/Conv/PixelNorm/mul"]}, {"name": "Func/progan/Run/progan/cond/then/_0/input/_79", "op": "NoOp", "input": ["^progan/Run/progan/4x4/Conv/PixelNorm/mul"]}, {"name": "Func/progan/Run/progan/cond/then/_0/input/_80", "op": "NoOp", "input": ["^progan/Run/progan/4x4/Conv/PixelNorm/mul"]}, {"name": "Func/progan/Run/progan/cond/then/_0/input/_81", "op": "NoOp", "input": ["^progan/Run/progan/4x4/Conv/PixelNorm/mul"]}, {"name": "Func/progan/Run/progan/cond/then/_0/input/_82", "op": "NoOp", "input": ["^progan/Run/progan/4x4/Conv/PixelNorm/mul"]}, {"name": "Func/progan/Run/progan/cond/then/_0/input/_83", "op": "NoOp", "input": ["^progan/Run/progan/4x4/Conv/PixelNorm/mul"]}, {"name": "Func/progan/Run/progan/cond/then/_0/input/_84", "op": "NoOp", "input": ["^progan/Run/progan/4x4/Conv/PixelNorm/mul"]}, {"name": "Func/progan/Run/progan/cond/then/_0/input/_85", "op": "NoOp", "input": ["^progan/Run/progan/4x4/Conv/PixelNorm/mul"]}, {"name": "Func/progan/Run/progan/cond/then/_0/input/_86", "op": "NoOp", "input": ["^progan/Run/progan/4x4/Conv/PixelNorm/mul"]}, {"name": "Func/progan/Run/progan/cond/then/_0/input/_87", "op": "NoOp", "input": ["^progan/Run/progan/4x4/Conv/PixelNorm/mul"]}, {"name": "Func/progan/Run/progan/cond/then/_0/input/_88", "op": "NoOp", "input": ["^progan/Run/progan/4x4/Conv/PixelNorm/mul"]}, {"name": "Func/progan/Run/progan/cond/then/_0/input/_89", "op": "NoOp", "input": ["^progan/Run/progan/4x4/Conv/PixelNorm/mul"]}, {"name": "Func/progan/Run/progan/cond/then/_0/input/_90", "op": "NoOp", "input": ["^progan/Run/progan/4x4/Conv/PixelNorm/mul"]}, {"name": "Func/progan/Run/progan/cond/then/_0/input/_91", "op": "NoOp", "input": ["^progan/Run/progan/4x4/Conv/PixelNorm/mul"]}, {"name": "Func/progan/Run/progan/cond/then/_0/input/_92", "op": "NoOp", "input": ["^progan/Run/progan/4x4/Conv/PixelNorm/mul"]}, {"name": "Func/progan/Run/progan/cond/then/_0/input/_93", "op": "NoOp", "input": ["^progan/Run/progan/4x4/Conv/PixelNorm/mul"]}, {"name": "Func/progan/Run/progan/cond/then/_0/input/_94", "op": "NoOp", "input": ["^progan/Run/progan/4x4/Conv/PixelNorm/mul"]}, {"name": "Func/progan/Run/progan/cond/then/_0/input/_95", "op": "NoOp", "input": ["^progan/Run/progan/4x4/Conv/PixelNorm/mul"]}, {"name": "Func/progan/Run/progan/cond/then/_0/input/_96", "op": "NoOp", "input": ["^progan/Run/progan/4x4/Conv/PixelNorm/mul"]}, {"name": "Func/progan/Run/progan/cond/then/_0/input/_97", "op": "NoOp", "input": ["^progan/Run/progan/4x4/Conv/PixelNorm/mul"]}, {"name": "Func/progan/Run/progan/cond/then/_0/input/_98", "op": "NoOp", "input": ["^progan/Run/progan/4x4/Conv/PixelNorm/mul"]}, {"name": "Func/progan/Run/progan/cond/then/_0/input/_99", "op": "NoOp", "input": ["^progan/Run/progan/4x4/Conv/PixelNorm/mul"]}, {"name": "progan/Run/progan/cond/then/_0/8x8/Conv1/LeakyRelu/alpha", "op": "Const", "input": ["^progan/Run/progan/4x4/Conv/PixelNorm/mul"], "device": "/device:CPU:0", "attr": {"value": {"tensor": {"dtype": "DT_FLOAT", "tensorShape": {}}}, "dtype": {"type": "DT_FLOAT"}}}, {"name": "progan/Run/progan/cond/then/_0/8x8/Conv0/LeakyRelu/alpha", "op": "Const", "input": ["^progan/Run/progan/4x4/Conv/PixelNorm/mul"], "device": "/device:CPU:0", "attr": {"value": {"tensor": {"dtype": "DT_FLOAT", "tensorShape": {}}}, "dtype": {"type": "DT_FLOAT"}}}, {"name": "progan/Run/progan/cond/then/_0/8x8/Upscale2D/Reshape/shape", "op": "Const", "input": ["^progan/Run/progan/4x4/Conv/PixelNorm/mul"], "device": "/device:CPU:0", "attr": {"value": {"tensor": {"dtype": "DT_INT32", "tensorShape": {"dim": [{"size": "6"}]}}}, "dtype": {"type": "DT_INT32"}}}, {"name": "progan/Run/progan/cond/then/_0/8x8/Upscale2D/Tile/multiples", "op": "Const", "input": ["^progan/Run/progan/4x4/Conv/PixelNorm/mul"], "device": "/device:CPU:0", "attr": {"value": {"tensor": {"dtype": "DT_INT32", "tensorShape": {"dim": [{"size": "6"}]}}}, "dtype": {"type": "DT_INT32"}}}, {"name": "progan/Run/progan/cond/then/_0/8x8/Upscale2D/Reshape_1/shape", "op": "Const", "input": ["^progan/Run/progan/4x4/Conv/PixelNorm/mul"], "device": "/device:CPU:0", "attr": {"value": {"tensor": {"dtype": "DT_INT32", "tensorShape": {"dim": [{"size": "4"}]}}}, "dtype": {"type": "DT_INT32"}}}, {"name": "progan/Run/progan/cond/then/_0/8x8/Conv0/transpose/perm", "op": "Const", "input": ["^progan/Run/progan/4x4/Conv/PixelNorm/mul"], "device": "/device:CPU:0", "attr": {"value": {"tensor": {"dtype": "DT_INT32", "tensorShape": {"dim": [{"size": "4"}]}}}, "dtype": {"type": "DT_INT32"}}}, {"name": "progan/Run/progan/cond/then/_0/8x8/Conv0/mul", "op": "Const", "input": ["^progan/Run/progan/4x4/Conv/PixelNorm/mul"], "device": "/device:CPU:0", "attr": {"value": {"tensor": {"dtype": "DT_FLOAT", "tensorShape": {"dim": [{"size": "3"}, {"size": "3"}, {"size": "512"}, {"size": "512"}]}}}, "dtype": {"type": "DT_FLOAT"}}}, {"name": "progan/Run/progan/cond/then/_0/8x8/Conv0/transpose_1/perm", "op": "Const", "input": ["^progan/Run/progan/4x4/Conv/PixelNorm/mul"], "device": "/device:CPU:0", "attr": {"value": {"tensor": {"dtype": "DT_INT32", "tensorShape": {"dim": [{"size": "4"}]}}}, "dtype": {"type": "DT_INT32"}}}, {"name": "progan/Run/progan/cond/then/_0/8x8/Conv0/Reshape", "op": "Const", "input": ["^progan/Run/progan/4x4/Conv/PixelNorm/mul"], "device": "/device:CPU:0", "attr": {"value": {"tensor": {"dtype": "DT_FLOAT", "tensorShape": {"dim": [{"size": "1"}, {"size": "512"}, {"size": "1"}, {"size": "1"}]}}}, "dtype": {"type": "DT_FLOAT"}}}, {"name": "progan/Run/progan/cond/then/_0/8x8/Conv0/PixelNorm/Mean/reduction_indices", "op": "Const", "input": ["^progan/Run/progan/4x4/Conv/PixelNorm/mul"], "device": "/device:CPU:0", "attr": {"value": {"tensor": {"dtype": "DT_INT32", "tensorShape": {}}}, "dtype": {"type": "DT_INT32"}}}, {"name": "progan/Run/progan/cond/then/_0/8x8/Conv0/PixelNorm/add/y", "op": "Const", "input": ["^progan/Run/progan/4x4/Conv/PixelNorm/mul"], "device": "/device:CPU:0", "attr": {"value": {"tensor": {"dtype": "DT_FLOAT", "tensorShape": {}}}, "dtype": {"type": "DT_FLOAT"}}}, {"name": "progan/Run/progan/cond/then/_0/8x8/Conv1/transpose/perm", "op": "Const", "input": ["^progan/Run/progan/4x4/Conv/PixelNorm/mul"], "device": "/device:CPU:0", "attr": {"value": {"tensor": {"dtype": "DT_INT32", "tensorShape": {"dim": [{"size": "4"}]}}}, "dtype": {"type": "DT_INT32"}}}, {"name": "progan/Run/progan/cond/then/_0/8x8/Conv1/mul", "op": "Const", "input": ["^progan/Run/progan/4x4/Conv/PixelNorm/mul"], "device": "/device:CPU:0", "attr": {"value": {"tensor": {"dtype": "DT_FLOAT", "tensorShape": {"dim": [{"size": "3"}, {"size": "3"}, {"size": "512"}, {"size": "512"}]}}}, "dtype": {"type": "DT_FLOAT"}}}, {"name": "progan/Run/progan/cond/then/_0/8x8/Conv1/transpose_1/perm", "op": "Const", "input": ["^progan/Run/progan/4x4/Conv/PixelNorm/mul"], "device": "/device:CPU:0", "attr": {"value": {"tensor": {"dtype": "DT_INT32", "tensorShape": {"dim": [{"size": "4"}]}}}, "dtype": {"type": "DT_INT32"}}}, {"name": "progan/Run/progan/cond/then/_0/8x8/Conv1/Reshape", "op": "Const", "input": ["^progan/Run/progan/4x4/Conv/PixelNorm/mul"], "device": "/device:CPU:0", "attr": {"value": {"tensor": {"dtype": "DT_FLOAT", "tensorShape": {"dim": [{"size": "1"}, {"size": "512"}, {"size": "1"}, {"size": "1"}]}}}, "dtype": {"type": "DT_FLOAT"}}}, {"name": "progan/Run/progan/cond/then/_0/8x8/Conv1/PixelNorm/Mean/reduction_indices", "op": "Const", "input": ["^progan/Run/progan/4x4/Conv/PixelNorm/mul"], "device": "/device:CPU:0", "attr": {"value": {"tensor": {"dtype": "DT_INT32", "tensorShape": {}}}, "dtype": {"type": "DT_INT32"}}}, {"name": "progan/Run/progan/cond/then/_0/8x8/Conv1/PixelNorm/add/y", "op": "Const", "input": ["^progan/Run/progan/4x4/Conv/PixelNorm/mul"], "device": "/device:CPU:0", "attr": {"value": {"tensor": {"dtype": "DT_FLOAT", "tensorShape": {}}}, "dtype": {"type": "DT_FLOAT"}}}, {"name": "progan/Run/progan/cond/switch_pred/_2", "op": "Switch", "input": ["progan/Run/progan/Less", "progan/Run/progan/Less", "^progan/Run/progan/4x4/Conv/PixelNorm/mul"], "device": "/device:CPU:0", "attr": {"T": {"type": "DT_BOOL"}}}, {"name": "progan/Run/progan/cond/then/_0/cond/Func/progan/Run/progan/cond/then/_0/input/_60/_222", "op": "Switch", "input": ["progan/Run/progan/cond/progan/Run/progan/4x4/Conv/PixelNorm/mul/_5:1", "progan/Run/progan/cond/then/_0/Less"], "device": "/device:CPU:0", "attr": {"T": {"type": "DT_FLOAT"}}}, {"name": "progan/Run/progan/cond/then/_0/cond/Func/progan/Run/progan/cond/then/_0/input/_108/_218", "op": "Switch", "input": ["Func/progan/Run/progan/cond/then/_0/input/_108", "progan/Run/progan/cond/then/_0/Less"], "attr": {"T": {"type": "DT_FLOAT"}}}, {"name": "progan/Run/progan/cond/then/_0/cond/Func/progan/Run/progan/cond/then/_0/input/_109/_219", "op": "Switch", "input": ["Func/progan/Run/progan/cond/then/_0/input/_109", "progan/Run/progan/cond/then/_0/Less"], "attr": {"T": {"type": "DT_FLOAT"}}}, {"name": "progan/Run/progan/cond/then/_0/cond/Func/progan/Run/progan/cond/then/_0/input/_110/_221", "op": "Switch", "input": ["Func/progan/Run/progan/cond/then/_0/input/_110", "progan/Run/progan/cond/then/_0/Less"], "attr": {"T": {"type": "DT_FLOAT"}}}, {"name": "progan/Run/progan/cond/then/_0/cond/Func/progan/Run/progan/cond/then/_0/input/_111/_223", "op": "Switch", "input": ["Func/progan/Run/progan/cond/then/_0/input/_111", "progan/Run/progan/cond/then/_0/Less"], "attr": {"T": {"type": "DT_FLOAT"}}}, {"name": "progan/Run/progan/cond/then/_0/cond/progan/Run/progan/cond/then/_0/Greater/_220", "op": "Switch", "input": ["progan/Run/progan/cond/then/_0/Greater", "progan/Run/progan/cond/then/_0/Less"], "device": "/device:CPU:0", "attr": {"T": {"type": "DT_BOOL"}}}, {"name": "progan/Run/progan/cond/then/_0/cond/Func/progan/Run/progan/cond/then/_0/input/_65/_179", "op": "Switch", "input": ["Func/progan/Run/progan/cond/then/_0/input/_65", "progan/Run/progan/cond/then/_0/Less"], "attr": {"T": {"type": "DT_FLOAT"}}}, {"name": "progan/Run/progan/cond/then/_0/8x8/Upscale2D/Reshape", "op": "Reshape", "input": ["progan/Run/progan/cond/progan/Run/progan/4x4/Conv/PixelNorm/mul/_5:1", "progan/Run/progan/cond/then/_0/8x8/Upscale2D/Reshape/shape"], "device": "/device:CPU:0", "attr": {"T": {"type": "DT_FLOAT"}, "Tshape": {"type": "DT_INT32"}}}, {"name": "progan/Run/progan/cond/pivot_f/_3", "op": "Identity", "input": ["progan/Run/progan/cond/switch_pred/_2"], "device": "/device:CPU:0", "attr": {"T": {"type": "DT_BOOL"}}}, {"name": "progan/Run/progan/cond/then/_0/8x8/Upscale2D/Tile", "op": "Tile", "input": ["progan/Run/progan/cond/then/_0/8x8/Upscale2D/Reshape", "progan/Run/progan/cond/then/_0/8x8/Upscale2D/Tile/multiples"], "device": "/device:CPU:0", "attr": {"Tmultiples": {"type": "DT_INT32"}, "T": {"type": "DT_FLOAT"}}}, {"name": "progan/Run/progan/cond/else/_1/ToRGB_lod8/transpose/perm", "op": "Const", "input": ["^progan/Run/progan/cond/pivot_f/_3"], "device": "/device:CPU:0", "attr": {"value": {"tensor": {"dtype": "DT_INT32", "tensorShape": {"dim": [{"size": "4"}]}}}, "dtype": {"type": "DT_INT32"}}}, {"name": "Func/progan/Run/progan/cond/else/_1/input/_165", "op": "Identity", "input": ["progan/Run/progan/cond/progan/ToRGB_lod8/weight/_55", "^progan/Run/progan/cond/pivot_f/_3"], "attr": {"T": {"type": "DT_FLOAT"}}}, {"name": "progan/Run/progan/cond/else/_1/ToRGB_lod8/wscale", "op": "Const", "input": ["^progan/Run/progan/cond/pivot_f/_3"], "device": "/device:CPU:0", "attr": {"value": {"tensor": {"dtype": "DT_FLOAT", "tensorShape": {}}}, "dtype": {"type": "DT_FLOAT"}}}, {"name": "progan/Run/progan/cond/else/_1/ToRGB_lod8/transpose_1/perm", "op": "Const", "input": ["^progan/Run/progan/cond/pivot_f/_3"], "device": "/device:CPU:0", "attr": {"value": {"tensor": {"dtype": "DT_INT32", "tensorShape": {"dim": [{"size": "4"}]}}}, "dtype": {"type": "DT_INT32"}}}, {"name": "Func/progan/Run/progan/cond/else/_1/input/_166", "op": "Identity", "input": ["progan/Run/progan/cond/progan/ToRGB_lod8/bias/_56", "^progan/Run/progan/cond/pivot_f/_3"], "attr": {"T": {"type": "DT_FLOAT"}}}, {"name": "progan/Run/progan/cond/else/_1/ToRGB_lod8/Reshape/shape", "op": "Const", "input": ["^progan/Run/progan/cond/pivot_f/_3"], "device": "/device:CPU:0", "attr": {"value": {"tensor": {"dtype": "DT_INT32", "tensorShape": {"dim": [{"size": "4"}]}}}, "dtype": {"type": "DT_INT32"}}}, {"name": "progan/Run/progan/cond/else/_1/Upscale2D/Reshape/shape", "op": "Const", "input": ["^progan/Run/progan/cond/pivot_f/_3"], "device": "/device:CPU:0", "attr": {"value": {"tensor": {"dtype": "DT_INT32", "tensorShape": {"dim": [{"size": "6"}]}}}, "dtype": {"type": "DT_INT32"}}}, {"name": "progan/Run/progan/cond/else/_1/Upscale2D/Tile/multiples", "op": "Const", "input": ["^progan/Run/progan/cond/pivot_f/_3"], "device": "/device:CPU:0", "attr": {"value": {"tensor": {"dtype": "DT_INT32", "tensorShape": {"dim": [{"size": "6"}]}}}, "dtype": {"type": "DT_INT32"}}}, {"name": "progan/Run/progan/cond/else/_1/Upscale2D/Reshape_1/shape", "op": "Const", "input": ["^progan/Run/progan/cond/pivot_f/_3"], "device": "/device:CPU:0", "attr": {"value": {"tensor": {"dtype": "DT_INT32", "tensorShape": {"dim": [{"size": "4"}]}}}, "dtype": {"type": "DT_INT32"}}}, {"name": "progan/Run/progan/cond/then/_0/8x8/Upscale2D/Reshape_1", "op": "Reshape", "input": ["progan/Run/progan/cond/then/_0/8x8/Upscale2D/Tile", "progan/Run/progan/cond/then/_0/8x8/Upscale2D/Reshape_1/shape"], "device": "/device:CPU:0", "attr": {"T": {"type": "DT_FLOAT"}, "Tshape": {"type": "DT_INT32"}}}, {"name": "progan/Run/progan/cond/else/_1/ToRGB_lod8/transpose", "op": "Transpose", "input": ["progan/Run/progan/cond/progan/Run/progan/4x4/Conv/PixelNorm/mul/_5", "progan/Run/progan/cond/else/_1/ToRGB_lod8/transpose/perm"], "device": "/device:CPU:0", "attr": {"Tperm": {"type": "DT_INT32"}, "T": {"type": "DT_FLOAT"}}}, {"name": "progan/Run/progan/cond/else/_1/ToRGB_lod8/mul", "op": "Mul", "input": ["Func/progan/Run/progan/cond/else/_1/input/_165", "progan/Run/progan/cond/else/_1/ToRGB_lod8/wscale"], "device": "/device:CPU:0", "attr": {"T": {"type": "DT_FLOAT"}}}, {"name": "progan/Run/progan/cond/else/_1/ToRGB_lod8/Reshape", "op": "Reshape", "input": ["Func/progan/Run/progan/cond/else/_1/input/_166", "progan/Run/progan/cond/else/_1/ToRGB_lod8/Reshape/shape"], "device": "/device:CPU:0", "attr": {"T": {"type": "DT_FLOAT"}, "Tshape": {"type": "DT_INT32"}}}, {"name": "progan/Run/progan/cond/then/_0/8x8/Conv0/transpose", "op": "Transpose", "input": ["progan/Run/progan/cond/then/_0/8x8/Upscale2D/Reshape_1", "progan/Run/progan/cond/then/_0/8x8/Conv0/transpose/perm"], "device": "/device:CPU:0", "attr": {"Tperm": {"type": "DT_INT32"}, "T": {"type": "DT_FLOAT"}}}, {"name": "progan/Run/progan/cond/else/_1/ToRGB_lod8/Conv2D", "op": "Conv2D", "input": ["progan/Run/progan/cond/else/_1/ToRGB_lod8/transpose", "progan/Run/progan/cond/else/_1/ToRGB_lod8/mul"], "device": "/device:CPU:0", "attr": {"dilations": {"list": {"i": ["1", "1", "1", "1"]}}, "T": {"type": "DT_FLOAT"}, "strides": {"list": {"i": ["1", "1", "1", "1"]}}, "data_format": {"s": "TkhXQw=="}, "use_cudnn_on_gpu": {"b": true}, "explicit_paddings": {"list": {}}, "padding": {"s": "U0FNRQ=="}}}, {"name": "progan/Run/progan/cond/then/_0/8x8/Conv0/Conv2D", "op": "Conv2D", "input": ["progan/Run/progan/cond/then/_0/8x8/Conv0/transpose", "progan/Run/progan/cond/then/_0/8x8/Conv0/mul"], "device": "/device:CPU:0", "attr": {"dilations": {"list": {"i": ["1", "1", "1", "1"]}}, "T": {"type": "DT_FLOAT"}, "strides": {"list": {"i": ["1", "1", "1", "1"]}}, "data_format": {"s": "TkhXQw=="}, "use_cudnn_on_gpu": {"b": true}, "explicit_paddings": {"list": {}}, "padding": {"s": "U0FNRQ=="}}}, {"name": "progan/Run/progan/cond/else/_1/ToRGB_lod8/transpose_1", "op": "Transpose", "input": ["progan/Run/progan/cond/else/_1/ToRGB_lod8/Conv2D", "progan/Run/progan/cond/else/_1/ToRGB_lod8/transpose_1/perm"], "device": "/device:CPU:0", "attr": {"Tperm": {"type": "DT_INT32"}, "T": {"type": "DT_FLOAT"}}}, {"name": "progan/Run/progan/cond/then/_0/8x8/Conv0/transpose_1", "op": "Transpose", "input": ["progan/Run/progan/cond/then/_0/8x8/Conv0/Conv2D", "progan/Run/progan/cond/then/_0/8x8/Conv0/transpose_1/perm"], "device": "/device:CPU:0", "attr": {"Tperm": {"type": "DT_INT32"}, "T": {"type": "DT_FLOAT"}}}, {"name": "progan/Run/progan/cond/else/_1/ToRGB_lod8/add", "op": "AddV2", "input": ["progan/Run/progan/cond/else/_1/ToRGB_lod8/transpose_1", "progan/Run/progan/cond/else/_1/ToRGB_lod8/Reshape"], "device": "/device:CPU:0", "attr": {"T": {"type": "DT_FLOAT"}}}, {"name": "progan/Run/progan/cond/then/_0/8x8/Conv0/add", "op": "AddV2", "input": ["progan/Run/progan/cond/then/_0/8x8/Conv0/transpose_1", "progan/Run/progan/cond/then/_0/8x8/Conv0/Reshape"], "device": "/device:CPU:0", "attr": {"T": {"type": "DT_FLOAT"}}}, {"name": "progan/Run/progan/cond/else/_1/Upscale2D/Reshape", "op": "Reshape", "input": ["progan/Run/progan/cond/else/_1/ToRGB_lod8/add", "progan/Run/progan/cond/else/_1/Upscale2D/Reshape/shape"], "device": "/device:CPU:0", "attr": {"T": {"type": "DT_FLOAT"}, "Tshape": {"type": "DT_INT32"}}}, {"name": "progan/Run/progan/cond/then/_0/8x8/Conv0/LeakyRelu/mul", "op": "Mul", "input": ["progan/Run/progan/cond/then/_0/8x8/Conv0/add", "progan/Run/progan/cond/then/_0/8x8/Conv0/LeakyRelu/alpha"], "device": "/device:CPU:0", "attr": {"T": {"type": "DT_FLOAT"}}}, {"name": "progan/Run/progan/cond/else/_1/Upscale2D/Tile", "op": "Tile", "input": ["progan/Run/progan/cond/else/_1/Upscale2D/Reshape", "progan/Run/progan/cond/else/_1/Upscale2D/Tile/multiples"], "device": "/device:CPU:0", "attr": {"Tmultiples": {"type": "DT_INT32"}, "T": {"type": "DT_FLOAT"}}}, {"name": "progan/Run/progan/cond/then/_0/8x8/Conv0/LeakyRelu/Maximum", "op": "Maximum", "input": ["progan/Run/progan/cond/then/_0/8x8/Conv0/LeakyRelu/mul", "progan/Run/progan/cond/then/_0/8x8/Conv0/add"], "device": "/device:CPU:0", "attr": {"T": {"type": "DT_FLOAT"}}}, {"name": "progan/Run/progan/cond/else/_1/Upscale2D/Reshape_1", "op": "Reshape", "input": ["progan/Run/progan/cond/else/_1/Upscale2D/Tile", "progan/Run/progan/cond/else/_1/Upscale2D/Reshape_1/shape"], "attr": {"T": {"type": "DT_FLOAT"}, "Tshape": {"type": "DT_INT32"}}}, {"name": "progan/Run/progan/cond/then/_0/8x8/Conv0/PixelNorm/Square", "op": "Square", "input": ["progan/Run/progan/cond/then/_0/8x8/Conv0/LeakyRelu/Maximum"], "device": "/device:CPU:0", "attr": {"T": {"type": "DT_FLOAT"}}}, {"name": "progan/Run/progan/cond/then/_0/8x8/Conv0/PixelNorm/Mean", "op": "Mean", "input": ["progan/Run/progan/cond/then/_0/8x8/Conv0/PixelNorm/Square", "progan/Run/progan/cond/then/_0/8x8/Conv0/PixelNorm/Mean/reduction_indices"], "device": "/device:CPU:0", "attr": {"keep_dims": {"b": true}, "Tidx": {"type": "DT_INT32"}, "T": {"type": "DT_FLOAT"}}}, {"name": "progan/Run/progan/cond/then/_0/8x8/Conv0/PixelNorm/add", "op": "AddV2", "input": ["progan/Run/progan/cond/then/_0/8x8/Conv0/PixelNorm/Mean", "progan/Run/progan/cond/then/_0/8x8/Conv0/PixelNorm/add/y"], "device": "/device:CPU:0", "attr": {"T": {"type": "DT_FLOAT"}}}, {"name": "progan/Run/progan/cond/then/_0/8x8/Conv0/PixelNorm/Rsqrt", "op": "Rsqrt", "input": ["progan/Run/progan/cond/then/_0/8x8/Conv0/PixelNorm/add"], "device": "/device:CPU:0", "attr": {"T": {"type": "DT_FLOAT"}}}, {"name": "progan/Run/progan/cond/then/_0/8x8/Conv0/PixelNorm/mul", "op": "Mul", "input": ["progan/Run/progan/cond/then/_0/8x8/Conv0/LeakyRelu/Maximum", "progan/Run/progan/cond/then/_0/8x8/Conv0/PixelNorm/Rsqrt"], "device": "/device:CPU:0", "attr": {"T": {"type": "DT_FLOAT"}}}, {"name": "progan/Run/progan/cond/then/_0/8x8/Conv1/transpose", "op": "Transpose", "input": ["progan/Run/progan/cond/then/_0/8x8/Conv0/PixelNorm/mul", "progan/Run/progan/cond/then/_0/8x8/Conv1/transpose/perm"], "device": "/device:CPU:0", "attr": {"Tperm": {"type": "DT_INT32"}, "T": {"type": "DT_FLOAT"}}}, {"name": "progan/Run/progan/cond/then/_0/8x8/Conv1/Conv2D", "op": "Conv2D", "input": ["progan/Run/progan/cond/then/_0/8x8/Conv1/transpose", "progan/Run/progan/cond/then/_0/8x8/Conv1/mul"], "device": "/device:CPU:0", "attr": {"dilations": {"list": {"i": ["1", "1", "1", "1"]}}, "T": {"type": "DT_FLOAT"}, "strides": {"list": {"i": ["1", "1", "1", "1"]}}, "data_format": {"s": "TkhXQw=="}, "use_cudnn_on_gpu": {"b": true}, "explicit_paddings": {"list": {}}, "padding": {"s": "U0FNRQ=="}}}, {"name": "progan/Run/progan/cond/then/_0/8x8/Conv1/transpose_1", "op": "Transpose", "input": ["progan/Run/progan/cond/then/_0/8x8/Conv1/Conv2D", "progan/Run/progan/cond/then/_0/8x8/Conv1/transpose_1/perm"], "device": "/device:CPU:0", "attr": {"Tperm": {"type": "DT_INT32"}, "T": {"type": "DT_FLOAT"}}}, {"name": "progan/Run/progan/cond/then/_0/8x8/Conv1/add", "op": "AddV2", "input": ["progan/Run/progan/cond/then/_0/8x8/Conv1/transpose_1", "progan/Run/progan/cond/then/_0/8x8/Conv1/Reshape"], "device": "/device:CPU:0", "attr": {"T": {"type": "DT_FLOAT"}}}, {"name": "progan/Run/progan/cond/then/_0/8x8/Conv1/LeakyRelu/mul", "op": "Mul", "input": ["progan/Run/progan/cond/then/_0/8x8/Conv1/add", "progan/Run/progan/cond/then/_0/8x8/Conv1/LeakyRelu/alpha"], "device": "/device:CPU:0", "attr": {"T": {"type": "DT_FLOAT"}}}, {"name": "progan/Run/progan/cond/then/_0/8x8/Conv1/LeakyRelu/Maximum", "op": "Maximum", "input": ["progan/Run/progan/cond/then/_0/8x8/Conv1/LeakyRelu/mul", "progan/Run/progan/cond/then/_0/8x8/Conv1/add"], "device": "/device:CPU:0", "attr": {"T": {"type": "DT_FLOAT"}}}, {"name": "progan/Run/progan/cond/then/_0/8x8/Conv1/PixelNorm/Square", "op": "Square", "input": ["progan/Run/progan/cond/then/_0/8x8/Conv1/LeakyRelu/Maximum"], "device": "/device:CPU:0", "attr": {"T": {"type": "DT_FLOAT"}}}, {"name": "progan/Run/progan/cond/then/_0/8x8/Conv1/PixelNorm/Mean", "op": "Mean", "input": ["progan/Run/progan/cond/then/_0/8x8/Conv1/PixelNorm/Square", "progan/Run/progan/cond/then/_0/8x8/Conv1/PixelNorm/Mean/reduction_indices"], "device": "/device:CPU:0", "attr": {"keep_dims": {"b": true}, "Tidx": {"type": "DT_INT32"}, "T": {"type": "DT_FLOAT"}}}, {"name": "progan/Run/progan/cond/then/_0/8x8/Conv1/PixelNorm/add", "op": "AddV2", "input": ["progan/Run/progan/cond/then/_0/8x8/Conv1/PixelNorm/Mean", "progan/Run/progan/cond/then/_0/8x8/Conv1/PixelNorm/add/y"], "device": "/device:CPU:0", "attr": {"T": {"type": "DT_FLOAT"}}}, {"name": "progan/Run/progan/cond/then/_0/8x8/Conv1/PixelNorm/Rsqrt", "op": "Rsqrt", "input": ["progan/Run/progan/cond/then/_0/8x8/Conv1/PixelNorm/add"], "device": "/device:CPU:0", "attr": {"T": {"type": "DT_FLOAT"}}}, {"name": "progan/Run/progan/cond/then/_0/8x8/Conv1/PixelNorm/mul", "op": "Mul", "input": ["progan/Run/progan/cond/then/_0/8x8/Conv1/LeakyRelu/Maximum", "progan/Run/progan/cond/then/_0/8x8/Conv1/PixelNorm/Rsqrt"], "device": "/device:CPU:0", "attr": {"T": {"type": "DT_FLOAT"}}}, {"name": "progan/Run/progan/cond/then/_0/cond/progan/Run/progan/cond/then/_0/8x8/Conv1/PixelNorm/mul/_174", "op": "Switch", "input": ["progan/Run/progan/cond/then/_0/8x8/Conv1/PixelNorm/mul", "progan/Run/progan/cond/then/_0/Less"], "device": "/device:CPU:0", "attr": {"T": {"type": "DT_FLOAT"}}}, {"name": "progan/Run/progan/cond/then/_0/cond/pivot_t/_173", "op": "NoOp", "input": ["^progan/Run/progan/cond/then/_0/8x8/Conv1/PixelNorm/mul", "^Func/progan/Run/progan/cond/then/_0/input/_100", "^Func/progan/Run/progan/cond/then/_0/input/_101", "^Func/progan/Run/progan/cond/then/_0/input/_102", "^Func/progan/Run/progan/cond/then/_0/input/_103", "^Func/progan/Run/progan/cond/then/_0/input/_104", "^Func/progan/Run/progan/cond/then/_0/input/_105", "^Func/progan/Run/progan/cond/then/_0/input/_106", "^Func/progan/Run/progan/cond/then/_0/input/_107", "^Func/progan/Run/progan/cond/then/_0/input/_108", "^Func/progan/Run/progan/cond/then/_0/input/_109", "^Func/progan/Run/progan/cond/then/_0/input/_110", "^Func/progan/Run/progan/cond/then/_0/input/_111", "^progan/Run/progan/cond/then/_0/Greater", "^Func/progan/Run/progan/cond/then/_0/input/_65", "^Func/progan/Run/progan/cond/then/_0/input/_66", "^Func/progan/Run/progan/cond/then/_0/input/_67", "^Func/progan/Run/progan/cond/then/_0/input/_68", "^Func/progan/Run/progan/cond/then/_0/input/_69", "^Func/progan/Run/progan/cond/then/_0/input/_70", "^Func/progan/Run/progan/cond/then/_0/input/_71", "^Func/progan/Run/progan/cond/then/_0/input/_72", "^Func/progan/Run/progan/cond/then/_0/input/_73", "^Func/progan/Run/progan/cond/then/_0/input/_74", "^Func/progan/Run/progan/cond/then/_0/input/_75", "^Func/progan/Run/progan/cond/then/_0/input/_76", "^Func/progan/Run/progan/cond/then/_0/input/_77", "^Func/progan/Run/progan/cond/then/_0/input/_78", "^Func/progan/Run/progan/cond/then/_0/input/_79", "^Func/progan/Run/progan/cond/then/_0/input/_80", "^Func/progan/Run/progan/cond/then/_0/input/_81", "^Func/progan/Run/progan/cond/then/_0/input/_82", "^Func/progan/Run/progan/cond/then/_0/input/_83", "^Func/progan/Run/progan/cond/then/_0/input/_84", "^Func/progan/Run/progan/cond/then/_0/input/_85", "^Func/progan/Run/progan/cond/then/_0/input/_86", "^Func/progan/Run/progan/cond/then/_0/input/_87", "^Func/progan/Run/progan/cond/then/_0/input/_88", "^Func/progan/Run/progan/cond/then/_0/input/_89", "^Func/progan/Run/progan/cond/then/_0/input/_90", "^Func/progan/Run/progan/cond/then/_0/input/_91", "^Func/progan/Run/progan/cond/then/_0/input/_92", "^Func/progan/Run/progan/cond/then/_0/input/_93", "^Func/progan/Run/progan/cond/then/_0/input/_94", "^Func/progan/Run/progan/cond/then/_0/input/_95", "^Func/progan/Run/progan/cond/then/_0/input/_96", "^Func/progan/Run/progan/cond/then/_0/input/_97", "^Func/progan/Run/progan/cond/then/_0/input/_98", "^Func/progan/Run/progan/cond/then/_0/input/_99"], "device": "/device:CPU:0"}, {"name": "progan/Run/progan/cond/then/_0/cond/switch_pred/_171", "op": "Switch", "input": ["progan/Run/progan/cond/then/_0/Less", "progan/Run/progan/cond/then/_0/Less", "^Func/progan/Run/progan/cond/then/_0/input/_100", "^Func/progan/Run/progan/cond/then/_0/input/_101", "^Func/progan/Run/progan/cond/then/_0/input/_102", "^Func/progan/Run/progan/cond/then/_0/input/_103", "^Func/progan/Run/progan/cond/then/_0/input/_104", "^Func/progan/Run/progan/cond/then/_0/input/_105", "^Func/progan/Run/progan/cond/then/_0/input/_106", "^Func/progan/Run/progan/cond/then/_0/input/_107", "^Func/progan/Run/progan/cond/then/_0/input/_108", "^Func/progan/Run/progan/cond/then/_0/input/_109", "^Func/progan/Run/progan/cond/then/_0/input/_110", "^Func/progan/Run/progan/cond/then/_0/input/_111", "^progan/Run/progan/cond/then/_0/Greater", "^Func/progan/Run/progan/cond/then/_0/input/_65", "^Func/progan/Run/progan/cond/then/_0/input/_66", "^Func/progan/Run/progan/cond/then/_0/input/_67", "^Func/progan/Run/progan/cond/then/_0/input/_68", "^Func/progan/Run/progan/cond/then/_0/input/_69", "^Func/progan/Run/progan/cond/then/_0/input/_70", "^Func/progan/Run/progan/cond/then/_0/input/_71", "^Func/progan/Run/progan/cond/then/_0/input/_72", "^Func/progan/Run/progan/cond/then/_0/input/_73", "^Func/progan/Run/progan/cond/then/_0/input/_74", "^Func/progan/Run/progan/cond/then/_0/input/_75", "^Func/progan/Run/progan/cond/then/_0/input/_76", "^Func/progan/Run/progan/cond/then/_0/input/_77", "^Func/progan/Run/progan/cond/then/_0/input/_78", "^Func/progan/Run/progan/cond/then/_0/input/_79", "^Func/progan/Run/progan/cond/then/_0/input/_80", "^Func/progan/Run/progan/cond/then/_0/input/_81", "^Func/progan/Run/progan/cond/then/_0/input/_82", "^Func/progan/Run/progan/cond/then/_0/input/_83", "^Func/progan/Run/progan/cond/then/_0/input/_84", "^Func/progan/Run/progan/cond/then/_0/input/_85", "^Func/progan/Run/progan/cond/then/_0/input/_86", "^Func/progan/Run/progan/cond/then/_0/input/_87", "^Func/progan/Run/progan/cond/then/_0/input/_88", "^Func/progan/Run/progan/cond/then/_0/input/_89", "^Func/progan/Run/progan/cond/then/_0/input/_90", "^Func/progan/Run/progan/cond/then/_0/input/_91", "^Func/progan/Run/progan/cond/then/_0/input/_92", "^Func/progan/Run/progan/cond/then/_0/input/_93", "^Func/progan/Run/progan/cond/then/_0/input/_94", "^Func/progan/Run/progan/cond/then/_0/input/_95", "^Func/progan/Run/progan/cond/then/_0/input/_96", "^Func/progan/Run/progan/cond/then/_0/input/_97", "^Func/progan/Run/progan/cond/then/_0/input/_98", "^Func/progan/Run/progan/cond/then/_0/input/_99", "^progan/Run/progan/cond/then/_0/8x8/Conv1/PixelNorm/mul"], "device": "/device:CPU:0", "attr": {"T": {"type": "DT_BOOL"}}}, {"name": "progan/Run/progan/cond/then/_0/cond/then/_169/Less", "op": "Const", "input": ["^progan/Run/progan/cond/then/_0/cond/pivot_t/_173"], "device": "/device:CPU:0", "attr": {"value": {"tensor": {"dtype": "DT_BOOL", "tensorShape": {}}}, "dtype": {"type": "DT_BOOL"}}}, {"name": "progan/Run/progan/cond/then/_0/cond/then/_169/Greater", "op": "Const", "input": ["^progan/Run/progan/cond/then/_0/cond/pivot_t/_173"], "device": "/device:CPU:0", "attr": {"value": {"tensor": {"dtype": "DT_BOOL", "tensorShape": {}}}, "dtype": {"type": "DT_BOOL"}}}, {"name": "Func/progan/Run/progan/cond/then/_0/cond/then/_169/input/_232", "op": "Const", "input": ["^progan/Run/progan/cond/then/_0/cond/pivot_t/_173"], "attr": {"value": {"tensor": {"dtype": "DT_FLOAT", "tensorShape": {}}}, "dtype": {"type": "DT_FLOAT"}}}, {"name": "Func/progan/Run/progan/cond/then/_0/cond/then/_169/input/_233", "op": "NoOp", "input": ["^progan/Run/progan/cond/then/_0/cond/pivot_t/_173"]}, {"name": "Func/progan/Run/progan/cond/then/_0/cond/then/_169/input/_234", "op": "NoOp", "input": ["^progan/Run/progan/cond/then/_0/cond/pivot_t/_173"]}, {"name": "Func/progan/Run/progan/cond/then/_0/cond/then/_169/input/_235", "op": "NoOp", "input": ["^progan/Run/progan/cond/then/_0/cond/pivot_t/_173"]}, {"name": "Func/progan/Run/progan/cond/then/_0/cond/then/_169/input/_236", "op": "NoOp", "input": ["^progan/Run/progan/cond/then/_0/cond/pivot_t/_173"]}, {"name": "Func/progan/Run/progan/cond/then/_0/cond/then/_169/input/_237", "op": "NoOp", "input": ["^progan/Run/progan/cond/then/_0/cond/pivot_t/_173"]}, {"name": "Func/progan/Run/progan/cond/then/_0/cond/then/_169/input/_238", "op": "NoOp", "input": ["^progan/Run/progan/cond/then/_0/cond/pivot_t/_173"]}, {"name": "Func/progan/Run/progan/cond/then/_0/cond/then/_169/input/_239", "op": "NoOp", "input": ["^progan/Run/progan/cond/then/_0/cond/pivot_t/_173"]}, {"name": "Func/progan/Run/progan/cond/then/_0/cond/then/_169/input/_240", "op": "NoOp", "input": ["^progan/Run/progan/cond/then/_0/cond/pivot_t/_173"]}, {"name": "Func/progan/Run/progan/cond/then/_0/cond/then/_169/input/_241", "op": "NoOp", "input": ["^progan/Run/progan/cond/then/_0/cond/pivot_t/_173"]}, {"name": "Func/progan/Run/progan/cond/then/_0/cond/then/_169/input/_242", "op": "NoOp", "input": ["^progan/Run/progan/cond/then/_0/cond/pivot_t/_173"]}, {"name": "Func/progan/Run/progan/cond/then/_0/cond/then/_169/input/_243", "op": "NoOp", "input": ["^progan/Run/progan/cond/then/_0/cond/pivot_t/_173"]}, {"name": "Func/progan/Run/progan/cond/then/_0/cond/then/_169/input/_244", "op": "NoOp", "input": ["^progan/Run/progan/cond/then/_0/cond/pivot_t/_173"]}, {"name": "Func/progan/Run/progan/cond/then/_0/cond/then/_169/input/_245", "op": "NoOp", "input": ["^progan/Run/progan/cond/then/_0/cond/pivot_t/_173"]}, {"name": "Func/progan/Run/progan/cond/then/_0/cond/then/_169/input/_246", "op": "NoOp", "input": ["^progan/Run/progan/cond/then/_0/cond/pivot_t/_173"]}, {"name": "Func/progan/Run/progan/cond/then/_0/cond/then/_169/input/_247", "op": "NoOp", "input": ["^progan/Run/progan/cond/then/_0/cond/pivot_t/_173"]}, {"name": "Func/progan/Run/progan/cond/then/_0/cond/then/_169/input/_248", "op": "NoOp", "input": ["^progan/Run/progan/cond/then/_0/cond/pivot_t/_173"]}, {"name": "Func/progan/Run/progan/cond/then/_0/cond/then/_169/input/_249", "op": "NoOp", "input": ["^progan/Run/progan/cond/then/_0/cond/pivot_t/_173"]}, {"name": "Func/progan/Run/progan/cond/then/_0/cond/then/_169/input/_250", "op": "NoOp", "input": ["^progan/Run/progan/cond/then/_0/cond/pivot_t/_173"]}, {"name": "Func/progan/Run/progan/cond/then/_0/cond/then/_169/input/_251", "op": "NoOp", "input": ["^progan/Run/progan/cond/then/_0/cond/pivot_t/_173"]}, {"name": "Func/progan/Run/progan/cond/then/_0/cond/then/_169/input/_252", "op": "NoOp", "input": ["^progan/Run/progan/cond/then/_0/cond/pivot_t/_173"]}, {"name": "Func/progan/Run/progan/cond/then/_0/cond/then/_169/input/_253", "op": "NoOp", "input": ["^progan/Run/progan/cond/then/_0/cond/pivot_t/_173"]}, {"name": "Func/progan/Run/progan/cond/then/_0/cond/then/_169/input/_254", "op": "NoOp", "input": ["^progan/Run/progan/cond/then/_0/cond/pivot_t/_173"]}, {"name": "Func/progan/Run/progan/cond/then/_0/cond/then/_169/input/_255", "op": "NoOp", "input": ["^progan/Run/progan/cond/then/_0/cond/pivot_t/_173"]}, {"name": "Func/progan/Run/progan/cond/then/_0/cond/then/_169/input/_256", "op": "NoOp", "input": ["^progan/Run/progan/cond/then/_0/cond/pivot_t/_173"]}, {"name": "Func/progan/Run/progan/cond/then/_0/cond/then/_169/input/_257", "op": "NoOp", "input": ["^progan/Run/progan/cond/then/_0/cond/pivot_t/_173"]}, {"name": "Func/progan/Run/progan/cond/then/_0/cond/then/_169/input/_258", "op": "NoOp", "input": ["^progan/Run/progan/cond/then/_0/cond/pivot_t/_173"]}, {"name": "Func/progan/Run/progan/cond/then/_0/cond/then/_169/input/_259", "op": "NoOp", "input": ["^progan/Run/progan/cond/then/_0/cond/pivot_t/_173"]}, {"name": "Func/progan/Run/progan/cond/then/_0/cond/then/_169/input/_260", "op": "NoOp", "input": ["^progan/Run/progan/cond/then/_0/cond/pivot_t/_173"]}, {"name": "Func/progan/Run/progan/cond/then/_0/cond/then/_169/input/_261", "op": "NoOp", "input": ["^progan/Run/progan/cond/then/_0/cond/pivot_t/_173"]}, {"name": "Func/progan/Run/progan/cond/then/_0/cond/then/_169/input/_262", "op": "NoOp", "input": ["^progan/Run/progan/cond/then/_0/cond/pivot_t/_173"]}, {"name": "Func/progan/Run/progan/cond/then/_0/cond/then/_169/input/_263", "op": "NoOp", "input": ["^progan/Run/progan/cond/then/_0/cond/pivot_t/_173"]}, {"name": "Func/progan/Run/progan/cond/then/_0/cond/then/_169/input/_264", "op": "NoOp", "input": ["^progan/Run/progan/cond/then/_0/cond/pivot_t/_173"]}, {"name": "Func/progan/Run/progan/cond/then/_0/cond/then/_169/input/_265", "op": "NoOp", "input": ["^progan/Run/progan/cond/then/_0/cond/pivot_t/_173"]}, {"name": "Func/progan/Run/progan/cond/then/_0/cond/then/_169/input/_266", "op": "NoOp", "input": ["^progan/Run/progan/cond/then/_0/cond/pivot_t/_173"]}, {"name": "Func/progan/Run/progan/cond/then/_0/cond/then/_169/input/_267", "op": "NoOp", "input": ["^progan/Run/progan/cond/then/_0/cond/pivot_t/_173"]}, {"name": "Func/progan/Run/progan/cond/then/_0/cond/then/_169/input/_268", "op": "NoOp", "input": ["^progan/Run/progan/cond/then/_0/cond/pivot_t/_173"]}, {"name": "Func/progan/Run/progan/cond/then/_0/cond/then/_169/input/_269", "op": "Const", "input": ["^progan/Run/progan/cond/then/_0/cond/pivot_t/_173"], "attr": {"value": {"tensor": {"dtype": "DT_FLOAT", "tensorShape": {"dim": [{"size": "1"}, {"size": "1"}, {"size": "512"}, {"size": "3"}]}}}, "dtype": {"type": "DT_FLOAT"}}}, {"name": "Func/progan/Run/progan/cond/then/_0/cond/then/_169/input/_270", "op": "Const", "input": ["^progan/Run/progan/cond/then/_0/cond/pivot_t/_173"], "attr": {"value": {"tensor": {"dtype": "DT_FLOAT", "tensorShape": {"dim": [{"size": "3"}]}}}, "dtype": {"type": "DT_FLOAT"}}}, {"name": "Func/progan/Run/progan/cond/then/_0/cond/then/_169/input/_271", "op": "Const", "input": ["^progan/Run/progan/cond/then/_0/cond/pivot_t/_173"], "attr": {"value": {"tensor": {"dtype": "DT_FLOAT", "tensorShape": {"dim": [{"size": "1"}, {"size": "1"}, {"size": "512"}, {"size": "3"}]}}}, "dtype": {"type": "DT_FLOAT"}}}, {"name": "Func/progan/Run/progan/cond/then/_0/cond/then/_169/input/_272", "op": "Const", "input": ["^progan/Run/progan/cond/then/_0/cond/pivot_t/_173"], "attr": {"value": {"tensor": {"dtype": "DT_FLOAT", "tensorShape": {"dim": [{"size": "3"}]}}}, "dtype": {"type": "DT_FLOAT"}}}, {"name": "progan/Run/progan/cond/then/_0/cond/then/_169/16x16/Conv1/LeakyRelu/alpha", "op": "Const", "input": ["^progan/Run/progan/cond/then/_0/cond/pivot_t/_173"], "device": "/device:CPU:0", "attr": {"value": {"tensor": {"dtype": "DT_FLOAT", "tensorShape": {}}}, "dtype": {"type": "DT_FLOAT"}}}, {"name": "progan/Run/progan/cond/then/_0/cond/then/_169/16x16/Conv0/LeakyRelu/alpha", "op": "Const", "input": ["^progan/Run/progan/cond/then/_0/cond/pivot_t/_173"], "device": "/device:CPU:0", "attr": {"value": {"tensor": {"dtype": "DT_FLOAT", "tensorShape": {}}}, "dtype": {"type": "DT_FLOAT"}}}, {"name": "progan/Run/progan/cond/then/_0/cond/then/_169/16x16/Upscale2D/Reshape/shape", "op": "Const", "input": ["^progan/Run/progan/cond/then/_0/cond/pivot_t/_173"], "device": "/device:CPU:0", "attr": {"value": {"tensor": {"dtype": "DT_INT32", "tensorShape": {"dim": [{"size": "6"}]}}}, "dtype": {"type": "DT_INT32"}}}, {"name": "progan/Run/progan/cond/then/_0/cond/then/_169/16x16/Upscale2D/Tile/multiples", "op": "Const", "input": ["^progan/Run/progan/cond/then/_0/cond/pivot_t/_173"], "device": "/device:CPU:0", "attr": {"value": {"tensor": {"dtype": "DT_INT32", "tensorShape": {"dim": [{"size": "6"}]}}}, "dtype": {"type": "DT_INT32"}}}, {"name": "progan/Run/progan/cond/then/_0/cond/then/_169/16x16/Upscale2D/Reshape_1/shape", "op": "Const", "input": ["^progan/Run/progan/cond/then/_0/cond/pivot_t/_173"], "device": "/device:CPU:0", "attr": {"value": {"tensor": {"dtype": "DT_INT32", "tensorShape": {"dim": [{"size": "4"}]}}}, "dtype": {"type": "DT_INT32"}}}, {"name": "progan/Run/progan/cond/then/_0/cond/then/_169/16x16/Conv0/transpose/perm", "op": "Const", "input": ["^progan/Run/progan/cond/then/_0/cond/pivot_t/_173"], "device": "/device:CPU:0", "attr": {"value": {"tensor": {"dtype": "DT_INT32", "tensorShape": {"dim": [{"size": "4"}]}}}, "dtype": {"type": "DT_INT32"}}}, {"name": "progan/Run/progan/cond/then/_0/cond/then/_169/16x16/Conv0/mul", "op": "Const", "input": ["^progan/Run/progan/cond/then/_0/cond/pivot_t/_173"], "device": "/device:CPU:0", "attr": {"value": {"tensor": {"dtype": "DT_FLOAT", "tensorShape": {"dim": [{"size": "3"}, {"size": "3"}, {"size": "512"}, {"size": "512"}]}}}, "dtype": {"type": "DT_FLOAT"}}}, {"name": "progan/Run/progan/cond/then/_0/cond/then/_169/16x16/Conv0/transpose_1/perm", "op": "Const", "input": ["^progan/Run/progan/cond/then/_0/cond/pivot_t/_173"], "device": "/device:CPU:0", "attr": {"value": {"tensor": {"dtype": "DT_INT32", "tensorShape": {"dim": [{"size": "4"}]}}}, "dtype": {"type": "DT_INT32"}}}, {"name": "progan/Run/progan/cond/then/_0/cond/then/_169/16x16/Conv0/Reshape", "op": "Const", "input": ["^progan/Run/progan/cond/then/_0/cond/pivot_t/_173"], "device": "/device:CPU:0", "attr": {"value": {"tensor": {"dtype": "DT_FLOAT", "tensorShape": {"dim": [{"size": "1"}, {"size": "512"}, {"size": "1"}, {"size": "1"}]}}}, "dtype": {"type": "DT_FLOAT"}}}, {"name": "progan/Run/progan/cond/then/_0/cond/then/_169/16x16/Conv0/PixelNorm/Mean/reduction_indices", "op": "Const", "input": ["^progan/Run/progan/cond/then/_0/cond/pivot_t/_173"], "device": "/device:CPU:0", "attr": {"value": {"tensor": {"dtype": "DT_INT32", "tensorShape": {}}}, "dtype": {"type": "DT_INT32"}}}, {"name": "progan/Run/progan/cond/then/_0/cond/then/_169/16x16/Conv0/PixelNorm/add/y", "op": "Const", "input": ["^progan/Run/progan/cond/then/_0/cond/pivot_t/_173"], "device": "/device:CPU:0", "attr": {"value": {"tensor": {"dtype": "DT_FLOAT", "tensorShape": {}}}, "dtype": {"type": "DT_FLOAT"}}}, {"name": "progan/Run/progan/cond/then/_0/cond/then/_169/16x16/Conv1/transpose/perm", "op": "Const", "input": ["^progan/Run/progan/cond/then/_0/cond/pivot_t/_173"], "device": "/device:CPU:0", "attr": {"value": {"tensor": {"dtype": "DT_INT32", "tensorShape": {"dim": [{"size": "4"}]}}}, "dtype": {"type": "DT_INT32"}}}, {"name": "progan/Run/progan/cond/then/_0/cond/then/_169/16x16/Conv1/mul", "op": "Const", "input": ["^progan/Run/progan/cond/then/_0/cond/pivot_t/_173"], "device": "/device:CPU:0", "attr": {"value": {"tensor": {"dtype": "DT_FLOAT", "tensorShape": {"dim": [{"size": "3"}, {"size": "3"}, {"size": "512"}, {"size": "512"}]}}}, "dtype": {"type": "DT_FLOAT"}}}, {"name": "progan/Run/progan/cond/then/_0/cond/then/_169/16x16/Conv1/transpose_1/perm", "op": "Const", "input": ["^progan/Run/progan/cond/then/_0/cond/pivot_t/_173"], "device": "/device:CPU:0", "attr": {"value": {"tensor": {"dtype": "DT_INT32", "tensorShape": {"dim": [{"size": "4"}]}}}, "dtype": {"type": "DT_INT32"}}}, {"name": "progan/Run/progan/cond/then/_0/cond/then/_169/16x16/Conv1/Reshape", "op": "Const", "input": ["^progan/Run/progan/cond/then/_0/cond/pivot_t/_173"], "device": "/device:CPU:0", "attr": {"value": {"tensor": {"dtype": "DT_FLOAT", "tensorShape": {"dim": [{"size": "1"}, {"size": "512"}, {"size": "1"}, {"size": "1"}]}}}, "dtype": {"type": "DT_FLOAT"}}}, {"name": "progan/Run/progan/cond/then/_0/cond/then/_169/16x16/Conv1/PixelNorm/Mean/reduction_indices", "op": "Const", "input": ["^progan/Run/progan/cond/then/_0/cond/pivot_t/_173"], "device": "/device:CPU:0", "attr": {"value": {"tensor": {"dtype": "DT_INT32", "tensorShape": {}}}, "dtype": {"type": "DT_INT32"}}}, {"name": "progan/Run/progan/cond/then/_0/cond/then/_169/16x16/Conv1/PixelNorm/add/y", "op": "Const", "input": ["^progan/Run/progan/cond/then/_0/cond/pivot_t/_173"], "device": "/device:CPU:0", "attr": {"value": {"tensor": {"dtype": "DT_FLOAT", "tensorShape": {}}}, "dtype": {"type": "DT_FLOAT"}}}, {"name": "progan/Run/progan/cond/then/_0/cond/pivot_f/_172", "op": "Identity", "input": ["progan/Run/progan/cond/then/_0/cond/switch_pred/_171"], "device": "/device:CPU:0", "attr": {"T": {"type": "DT_BOOL"}}}, {"name": "progan/Run/progan/cond/then/_0/cond/then/_169/cond/Func/progan/Run/progan/cond/then/_0/cond/then/_169/input/_227/_379", "op": "Switch", "input": ["progan/Run/progan/cond/then/_0/cond/progan/Run/progan/cond/then/_0/8x8/Conv1/PixelNorm/mul/_174:1", "progan/Run/progan/cond/then/_0/cond/then/_169/Less"], "device": "/device:CPU:0", "attr": {"T": {"type": "DT_FLOAT"}}}, {"name": "progan/Run/progan/cond/then/_0/cond/then/_169/cond/progan/Run/progan/cond/then/_0/cond/then/_169/Greater/_377", "op": "Switch", "input": ["progan/Run/progan/cond/then/_0/cond/then/_169/Greater", "progan/Run/progan/cond/then/_0/cond/then/_169/Less"], "device": "/device:CPU:0", "attr": {"T": {"type": "DT_BOOL"}}}, {"name": "progan/Run/progan/cond/then/_0/cond/then/_169/cond/Func/progan/Run/progan/cond/then/_0/cond/then/_169/input/_232/_342", "op": "Switch", "input": ["Func/progan/Run/progan/cond/then/_0/cond/then/_169/input/_232", "progan/Run/progan/cond/then/_0/cond/then/_169/Less"], "attr": {"T": {"type": "DT_FLOAT"}}}, {"name": "progan/Run/progan/cond/then/_0/cond/then/_169/cond/Func/progan/Run/progan/cond/then/_0/cond/then/_169/input/_269/_375", "op": "Switch", "input": ["Func/progan/Run/progan/cond/then/_0/cond/then/_169/input/_269", "progan/Run/progan/cond/then/_0/cond/then/_169/Less"], "attr": {"T": {"type": "DT_FLOAT"}}}, {"name": "progan/Run/progan/cond/then/_0/cond/then/_169/cond/Func/progan/Run/progan/cond/then/_0/cond/then/_169/input/_270/_376", "op": "Switch", "input": ["Func/progan/Run/progan/cond/then/_0/cond/then/_169/input/_270", "progan/Run/progan/cond/then/_0/cond/then/_169/Less"], "attr": {"T": {"type": "DT_FLOAT"}}}, {"name": "progan/Run/progan/cond/then/_0/cond/then/_169/cond/Func/progan/Run/progan/cond/then/_0/cond/then/_169/input/_271/_378", "op": "Switch", "input": ["Func/progan/Run/progan/cond/then/_0/cond/then/_169/input/_271", "progan/Run/progan/cond/then/_0/cond/then/_169/Less"], "attr": {"T": {"type": "DT_FLOAT"}}}, {"name": "progan/Run/progan/cond/then/_0/cond/then/_169/cond/Func/progan/Run/progan/cond/then/_0/cond/then/_169/input/_272/_380", "op": "Switch", "input": ["Func/progan/Run/progan/cond/then/_0/cond/then/_169/input/_272", "progan/Run/progan/cond/then/_0/cond/then/_169/Less"], "attr": {"T": {"type": "DT_FLOAT"}}}, {"name": "progan/Run/progan/cond/then/_0/cond/then/_169/16x16/Upscale2D/Reshape", "op": "Reshape", "input": ["progan/Run/progan/cond/then/_0/cond/progan/Run/progan/cond/then/_0/8x8/Conv1/PixelNorm/mul/_174:1", "progan/Run/progan/cond/then/_0/cond/then/_169/16x16/Upscale2D/Reshape/shape"], "device": "/device:CPU:0", "attr": {"T": {"type": "DT_FLOAT"}, "Tshape": {"type": "DT_INT32"}}}, {"name": "Func/progan/Run/progan/cond/then/_0/cond/else/_170/input/_326", "op": "Identity", "input": ["progan/Run/progan/cond/then/_0/cond/progan/Run/progan/cond/then/_0/Greater/_220", "^progan/Run/progan/cond/then/_0/cond/pivot_f/_172"], "device": "/device:CPU:0", "attr": {"T": {"type": "DT_BOOL"}}}, {"name": "Func/progan/Run/progan/cond/then/_0/cond/else/_170/input/_280", "op": "Identity", "input": ["progan/Run/progan/cond/then/_0/cond/progan/Run/progan/cond/then/_0/8x8/Conv1/PixelNorm/mul/_174", "^progan/Run/progan/cond/then/_0/cond/pivot_f/_172"], "device": "/device:CPU:0", "attr": {"T": {"type": "DT_FLOAT"}}}, {"name": "Func/progan/Run/progan/cond/then/_0/cond/else/_170/input/_285", "op": "Identity", "input": ["progan/Run/progan/cond/then/_0/cond/Func/progan/Run/progan/cond/then/_0/input/_65/_179", "^progan/Run/progan/cond/then/_0/cond/pivot_f/_172"], "attr": {"T": {"type": "DT_FLOAT"}}}, {"name": "Func/progan/Run/progan/cond/then/_0/cond/else/_170/input/_324", "op": "Identity", "input": ["progan/Run/progan/cond/then/_0/cond/Func/progan/Run/progan/cond/then/_0/input/_108/_218", "^progan/Run/progan/cond/then/_0/cond/pivot_f/_172"], "attr": {"T": {"type": "DT_FLOAT"}}}, {"name": "Func/progan/Run/progan/cond/then/_0/cond/else/_170/input/_325", "op": "Identity", "input": ["progan/Run/progan/cond/then/_0/cond/Func/progan/Run/progan/cond/then/_0/input/_109/_219", "^progan/Run/progan/cond/then/_0/cond/pivot_f/_172"], "attr": {"T": {"type": "DT_FLOAT"}}}, {"name": "Func/progan/Run/progan/cond/then/_0/cond/else/_170/input/_327", "op": "Identity", "input": ["progan/Run/progan/cond/then/_0/cond/Func/progan/Run/progan/cond/then/_0/input/_110/_221", "^progan/Run/progan/cond/then/_0/cond/pivot_f/_172"], "attr": {"T": {"type": "DT_FLOAT"}}}, {"name": "Func/progan/Run/progan/cond/then/_0/cond/else/_170/input/_328", "op": "Identity", "input": ["progan/Run/progan/cond/then/_0/cond/Func/progan/Run/progan/cond/then/_0/input/_60/_222", "^progan/Run/progan/cond/then/_0/cond/pivot_f/_172"], "device": "/device:CPU:0", "attr": {"T": {"type": "DT_FLOAT"}}}, {"name": "Func/progan/Run/progan/cond/then/_0/cond/else/_170/input/_329", "op": "Identity", "input": ["progan/Run/progan/cond/then/_0/cond/Func/progan/Run/progan/cond/then/_0/input/_111/_223", "^progan/Run/progan/cond/then/_0/cond/pivot_f/_172"], "attr": {"T": {"type": "DT_FLOAT"}}}, {"name": "progan/Run/progan/cond/then/_0/cond/then/_169/16x16/Upscale2D/Tile", "op": "Tile", "input": ["progan/Run/progan/cond/then/_0/cond/then/_169/16x16/Upscale2D/Reshape", "progan/Run/progan/cond/then/_0/cond/then/_169/16x16/Upscale2D/Tile/multiples"], "device": "/device:CPU:0", "attr": {"Tmultiples": {"type": "DT_INT32"}, "T": {"type": "DT_FLOAT"}}}, {"name": "progan/Run/progan/cond/then/_0/cond/else/_170/cond/Func/progan/Run/progan/cond/then/_0/cond/else/_170/input/_280/_389", "op": "Switch", "input": ["Func/progan/Run/progan/cond/then/_0/cond/else/_170/input/_280", "Func/progan/Run/progan/cond/then/_0/cond/else/_170/input/_326"], "device": "/device:CPU:0", "attr": {"T": {"type": "DT_FLOAT"}}}, {"name": "progan/Run/progan/cond/then/_0/cond/else/_170/cond/Func/progan/Run/progan/cond/then/_0/cond/else/_170/input/_285/_394", "op": "Switch", "input": ["Func/progan/Run/progan/cond/then/_0/cond/else/_170/input/_285", "Func/progan/Run/progan/cond/then/_0/cond/else/_170/input/_326"], "attr": {"T": {"type": "DT_FLOAT"}}}, {"name": "progan/Run/progan/cond/then/_0/cond/else/_170/cond/Func/progan/Run/progan/cond/then/_0/cond/else/_170/input/_324/_388", "op": "Switch", "input": ["Func/progan/Run/progan/cond/then/_0/cond/else/_170/input/_324", "Func/progan/Run/progan/cond/then/_0/cond/else/_170/input/_326"], "attr": {"T": {"type": "DT_FLOAT"}}}, {"name": "progan/Run/progan/cond/then/_0/cond/else/_170/cond/Func/progan/Run/progan/cond/then/_0/cond/else/_170/input/_325/_390", "op": "Switch", "input": ["Func/progan/Run/progan/cond/then/_0/cond/else/_170/input/_325", "Func/progan/Run/progan/cond/then/_0/cond/else/_170/input/_326"], "attr": {"T": {"type": "DT_FLOAT"}}}, {"name": "progan/Run/progan/cond/then/_0/cond/else/_170/cond/Func/progan/Run/progan/cond/then/_0/cond/else/_170/input/_327/_391", "op": "Switch", "input": ["Func/progan/Run/progan/cond/then/_0/cond/else/_170/input/_327", "Func/progan/Run/progan/cond/then/_0/cond/else/_170/input/_326"], "attr": {"T": {"type": "DT_FLOAT"}}}, {"name": "progan/Run/progan/cond/then/_0/cond/else/_170/cond/Func/progan/Run/progan/cond/then/_0/cond/else/_170/input/_328/_392", "op": "Switch", "input": ["Func/progan/Run/progan/cond/then/_0/cond/else/_170/input/_328", "Func/progan/Run/progan/cond/then/_0/cond/else/_170/input/_326"], "device": "/device:CPU:0", "attr": {"T": {"type": "DT_FLOAT"}}}, {"name": "progan/Run/progan/cond/then/_0/cond/else/_170/cond/Func/progan/Run/progan/cond/then/_0/cond/else/_170/input/_329/_393", "op": "Switch", "input": ["Func/progan/Run/progan/cond/then/_0/cond/else/_170/input/_329", "Func/progan/Run/progan/cond/then/_0/cond/else/_170/input/_326"], "attr": {"T": {"type": "DT_FLOAT"}}}, {"name": "progan/Run/progan/cond/then/_0/cond/else/_170/cond/switch_pred/_385", "op": "Switch", "input": ["Func/progan/Run/progan/cond/then/_0/cond/else/_170/input/_326", "Func/progan/Run/progan/cond/then/_0/cond/else/_170/input/_326", "^Func/progan/Run/progan/cond/then/_0/cond/else/_170/input/_280", "^Func/progan/Run/progan/cond/then/_0/cond/else/_170/input/_285", "^Func/progan/Run/progan/cond/then/_0/cond/else/_170/input/_324", "^Func/progan/Run/progan/cond/then/_0/cond/else/_170/input/_325", "^Func/progan/Run/progan/cond/then/_0/cond/else/_170/input/_327", "^Func/progan/Run/progan/cond/then/_0/cond/else/_170/input/_328", "^Func/progan/Run/progan/cond/then/_0/cond/else/_170/input/_329"], "device": "/device:CPU:0", "attr": {"T": {"type": "DT_BOOL"}}}, {"name": "progan/Run/progan/cond/then/_0/cond/then/_169/16x16/Upscale2D/Reshape_1", "op": "Reshape", "input": ["progan/Run/progan/cond/then/_0/cond/then/_169/16x16/Upscale2D/Tile", "progan/Run/progan/cond/then/_0/cond/then/_169/16x16/Upscale2D/Reshape_1/shape"], "device": "/device:CPU:0", "attr": {"T": {"type": "DT_FLOAT"}, "Tshape": {"type": "DT_INT32"}}}, {"name": "progan/Run/progan/cond/then/_0/cond/else/_170/cond/pivot_f/_386", "op": "Identity", "input": ["progan/Run/progan/cond/then/_0/cond/else/_170/cond/switch_pred/_385"], "device": "/device:CPU:0", "attr": {"T": {"type": "DT_BOOL"}}}, {"name": "progan/Run/progan/cond/then/_0/cond/else/_170/cond/pivot_t/_387", "op": "Identity", "input": ["progan/Run/progan/cond/then/_0/cond/else/_170/cond/switch_pred/_385:1"], "device": "/device:CPU:0", "attr": {"T": {"type": "DT_BOOL"}}}, {"name": "progan/Run/progan/cond/then/_0/cond/then/_169/16x16/Conv0/transpose", "op": "Transpose", "input": ["progan/Run/progan/cond/then/_0/cond/then/_169/16x16/Upscale2D/Reshape_1", "progan/Run/progan/cond/then/_0/cond/then/_169/16x16/Conv0/transpose/perm"], "device": "/device:CPU:0", "attr": {"Tperm": {"type": "DT_INT32"}, "T": {"type": "DT_FLOAT"}}}, {"name": "progan/Run/progan/cond/then/_0/cond/else/_170/cond/else/_384/ToRGB_lod7/transpose/perm", "op": "Const", "input": ["^progan/Run/progan/cond/then/_0/cond/else/_170/cond/pivot_f/_386"], "device": "/device:CPU:0", "attr": {"value": {"tensor": {"dtype": "DT_INT32", "tensorShape": {"dim": [{"size": "4"}]}}}, "dtype": {"type": "DT_INT32"}}}, {"name": "Func/progan/Run/progan/cond/then/_0/cond/else/_170/cond/else/_384/input/_502", "op": "Identity", "input": ["progan/Run/progan/cond/then/_0/cond/else/_170/cond/Func/progan/Run/progan/cond/then/_0/cond/else/_170/input/_324/_388", "^progan/Run/progan/cond/then/_0/cond/else/_170/cond/pivot_f/_386"], "attr": {"T": {"type": "DT_FLOAT"}}}, {"name": "progan/Run/progan/cond/then/_0/cond/else/_170/cond/else/_384/ToRGB_lod7/wscale", "op": "Const", "input": ["^progan/Run/progan/cond/then/_0/cond/else/_170/cond/pivot_f/_386"], "device": "/device:CPU:0", "attr": {"value": {"tensor": {"dtype": "DT_FLOAT", "tensorShape": {}}}, "dtype": {"type": "DT_FLOAT"}}}, {"name": "progan/Run/progan/cond/then/_0/cond/else/_170/cond/else/_384/ToRGB_lod7/transpose_1/perm", "op": "Const", "input": ["^progan/Run/progan/cond/then/_0/cond/else/_170/cond/pivot_f/_386"], "device": "/device:CPU:0", "attr": {"value": {"tensor": {"dtype": "DT_INT32", "tensorShape": {"dim": [{"size": "4"}]}}}, "dtype": {"type": "DT_INT32"}}}, {"name": "Func/progan/Run/progan/cond/then/_0/cond/else/_170/cond/else/_384/input/_504", "op": "Identity", "input": ["progan/Run/progan/cond/then/_0/cond/else/_170/cond/Func/progan/Run/progan/cond/then/_0/cond/else/_170/input/_325/_390", "^progan/Run/progan/cond/then/_0/cond/else/_170/cond/pivot_f/_386"], "attr": {"T": {"type": "DT_FLOAT"}}}, {"name": "progan/Run/progan/cond/then/_0/cond/else/_170/cond/else/_384/ToRGB_lod7/Reshape/shape", "op": "Const", "input": ["^progan/Run/progan/cond/then/_0/cond/else/_170/cond/pivot_f/_386"], "device": "/device:CPU:0", "attr": {"value": {"tensor": {"dtype": "DT_INT32", "tensorShape": {"dim": [{"size": "4"}]}}}, "dtype": {"type": "DT_INT32"}}}, {"name": "progan/Run/progan/cond/then/_0/cond/else/_170/cond/else/_384/Upscale2D/Reshape/shape", "op": "Const", "input": ["^progan/Run/progan/cond/then/_0/cond/else/_170/cond/pivot_f/_386"], "device": "/device:CPU:0", "attr": {"value": {"tensor": {"dtype": "DT_INT32", "tensorShape": {"dim": [{"size": "6"}]}}}, "dtype": {"type": "DT_INT32"}}}, {"name": "progan/Run/progan/cond/then/_0/cond/else/_170/cond/else/_384/Upscale2D/Tile/multiples", "op": "Const", "input": ["^progan/Run/progan/cond/then/_0/cond/else/_170/cond/pivot_f/_386"], "device": "/device:CPU:0", "attr": {"value": {"tensor": {"dtype": "DT_INT32", "tensorShape": {"dim": [{"size": "6"}]}}}, "dtype": {"type": "DT_INT32"}}}, {"name": "progan/Run/progan/cond/then/_0/cond/else/_170/cond/else/_384/Upscale2D/Reshape_1/shape", "op": "Const", "input": ["^progan/Run/progan/cond/then/_0/cond/else/_170/cond/pivot_f/_386"], "device": "/device:CPU:0", "attr": {"value": {"tensor": {"dtype": "DT_INT32", "tensorShape": {"dim": [{"size": "4"}]}}}, "dtype": {"type": "DT_INT32"}}}, {"name": "progan/Run/progan/cond/then/_0/cond/else/_170/cond/then/_383/ToRGB_lod8/transpose/perm", "op": "Const", "input": ["^progan/Run/progan/cond/then/_0/cond/else/_170/cond/pivot_t/_387"], "device": "/device:CPU:0", "attr": {"value": {"tensor": {"dtype": "DT_INT32", "tensorShape": {"dim": [{"size": "4"}]}}}, "dtype": {"type": "DT_INT32"}}}, {"name": "Func/progan/Run/progan/cond/then/_0/cond/else/_170/cond/then/_383/input/_495", "op": "Identity", "input": ["progan/Run/progan/cond/then/_0/cond/else/_170/cond/Func/progan/Run/progan/cond/then/_0/cond/else/_170/input/_327/_391:1", "^progan/Run/progan/cond/then/_0/cond/else/_170/cond/pivot_t/_387"], "attr": {"T": {"type": "DT_FLOAT"}}}, {"name": "progan/Run/progan/cond/then/_0/cond/else/_170/cond/then/_383/ToRGB_lod8/wscale", "op": "Const", "input": ["^progan/Run/progan/cond/then/_0/cond/else/_170/cond/pivot_t/_387"], "device": "/device:CPU:0", "attr": {"value": {"tensor": {"dtype": "DT_FLOAT", "tensorShape": {}}}, "dtype": {"type": "DT_FLOAT"}}}, {"name": "progan/Run/progan/cond/then/_0/cond/else/_170/cond/then/_383/ToRGB_lod8/transpose_1/perm", "op": "Const", "input": ["^progan/Run/progan/cond/then/_0/cond/else/_170/cond/pivot_t/_387"], "device": "/device:CPU:0", "attr": {"value": {"tensor": {"dtype": "DT_INT32", "tensorShape": {"dim": [{"size": "4"}]}}}, "dtype": {"type": "DT_INT32"}}}, {"name": "Func/progan/Run/progan/cond/then/_0/cond/else/_170/cond/then/_383/input/_497", "op": "Identity", "input": ["progan/Run/progan/cond/then/_0/cond/else/_170/cond/Func/progan/Run/progan/cond/then/_0/cond/else/_170/input/_329/_393:1", "^progan/Run/progan/cond/then/_0/cond/else/_170/cond/pivot_t/_387"], "attr": {"T": {"type": "DT_FLOAT"}}}, {"name": "progan/Run/progan/cond/then/_0/cond/else/_170/cond/then/_383/ToRGB_lod8/Reshape/shape", "op": "Const", "input": ["^progan/Run/progan/cond/then/_0/cond/else/_170/cond/pivot_t/_387"], "device": "/device:CPU:0", "attr": {"value": {"tensor": {"dtype": "DT_INT32", "tensorShape": {"dim": [{"size": "4"}]}}}, "dtype": {"type": "DT_INT32"}}}, {"name": "progan/Run/progan/cond/then/_0/cond/else/_170/cond/then/_383/Upscale2D/Reshape/shape", "op": "Const", "input": ["^progan/Run/progan/cond/then/_0/cond/else/_170/cond/pivot_t/_387"], "device": "/device:CPU:0", "attr": {"value": {"tensor": {"dtype": "DT_INT32", "tensorShape": {"dim": [{"size": "6"}]}}}, "dtype": {"type": "DT_INT32"}}}, {"name": "progan/Run/progan/cond/then/_0/cond/else/_170/cond/then/_383/Upscale2D/Tile/multiples", "op": "Const", "input": ["^progan/Run/progan/cond/then/_0/cond/else/_170/cond/pivot_t/_387"], "device": "/device:CPU:0", "attr": {"value": {"tensor": {"dtype": "DT_INT32", "tensorShape": {"dim": [{"size": "6"}]}}}, "dtype": {"type": "DT_INT32"}}}, {"name": "progan/Run/progan/cond/then/_0/cond/else/_170/cond/then/_383/Upscale2D/Reshape_1/shape", "op": "Const", "input": ["^progan/Run/progan/cond/then/_0/cond/else/_170/cond/pivot_t/_387"], "device": "/device:CPU:0", "attr": {"value": {"tensor": {"dtype": "DT_INT32", "tensorShape": {"dim": [{"size": "4"}]}}}, "dtype": {"type": "DT_INT32"}}}, {"name": "progan/Run/progan/cond/then/_0/cond/else/_170/cond/then/_383/ToRGB_lod7/transpose/perm", "op": "Const", "input": ["^progan/Run/progan/cond/then/_0/cond/else/_170/cond/pivot_t/_387"], "device": "/device:CPU:0", "attr": {"value": {"tensor": {"dtype": "DT_INT32", "tensorShape": {"dim": [{"size": "4"}]}}}, "dtype": {"type": "DT_INT32"}}}, {"name": "Func/progan/Run/progan/cond/then/_0/cond/else/_170/cond/then/_383/input/_492", "op": "Identity", "input": ["progan/Run/progan/cond/then/_0/cond/else/_170/cond/Func/progan/Run/progan/cond/then/_0/cond/else/_170/input/_324/_388:1", "^progan/Run/progan/cond/then/_0/cond/else/_170/cond/pivot_t/_387"], "attr": {"T": {"type": "DT_FLOAT"}}}, {"name": "progan/Run/progan/cond/then/_0/cond/else/_170/cond/then/_383/ToRGB_lod7/wscale", "op": "Const", "input": ["^progan/Run/progan/cond/then/_0/cond/else/_170/cond/pivot_t/_387"], "device": "/device:CPU:0", "attr": {"value": {"tensor": {"dtype": "DT_FLOAT", "tensorShape": {}}}, "dtype": {"type": "DT_FLOAT"}}}, {"name": "progan/Run/progan/cond/then/_0/cond/else/_170/cond/then/_383/ToRGB_lod7/transpose_1/perm", "op": "Const", "input": ["^progan/Run/progan/cond/then/_0/cond/else/_170/cond/pivot_t/_387"], "device": "/device:CPU:0", "attr": {"value": {"tensor": {"dtype": "DT_INT32", "tensorShape": {"dim": [{"size": "4"}]}}}, "dtype": {"type": "DT_INT32"}}}, {"name": "Func/progan/Run/progan/cond/then/_0/cond/else/_170/cond/then/_383/input/_494", "op": "Identity", "input": ["progan/Run/progan/cond/then/_0/cond/else/_170/cond/Func/progan/Run/progan/cond/then/_0/cond/else/_170/input/_325/_390:1", "^progan/Run/progan/cond/then/_0/cond/else/_170/cond/pivot_t/_387"], "attr": {"T": {"type": "DT_FLOAT"}}}, {"name": "progan/Run/progan/cond/then/_0/cond/else/_170/cond/then/_383/ToRGB_lod7/Reshape/shape", "op": "Const", "input": ["^progan/Run/progan/cond/then/_0/cond/else/_170/cond/pivot_t/_387"], "device": "/device:CPU:0", "attr": {"value": {"tensor": {"dtype": "DT_INT32", "tensorShape": {"dim": [{"size": "4"}]}}}, "dtype": {"type": "DT_INT32"}}}, {"name": "Func/progan/Run/progan/cond/then/_0/cond/else/_170/cond/then/_383/input/_498", "op": "Identity", "input": ["progan/Run/progan/cond/then/_0/cond/else/_170/cond/Func/progan/Run/progan/cond/then/_0/cond/else/_170/input/_285/_394:1", "^progan/Run/progan/cond/then/_0/cond/else/_170/cond/pivot_t/_387"], "attr": {"T": {"type": "DT_FLOAT"}}}, {"name": "progan/Run/progan/cond/then/_0/cond/else/_170/cond/then/_383/sub/y", "op": "Const", "input": ["^progan/Run/progan/cond/then/_0/cond/else/_170/cond/pivot_t/_387"], "device": "/device:CPU:0", "attr": {"value": {"tensor": {"dtype": "DT_FLOAT", "tensorShape": {}}}, "dtype": {"type": "DT_FLOAT"}}}, {"name": "progan/Run/progan/cond/then/_0/cond/else/_170/cond/then/_383/Upscale2D_1/Reshape/shape", "op": "Const", "input": ["^progan/Run/progan/cond/then/_0/cond/else/_170/cond/pivot_t/_387"], "device": "/device:CPU:0", "attr": {"value": {"tensor": {"dtype": "DT_INT32", "tensorShape": {"dim": [{"size": "6"}]}}}, "dtype": {"type": "DT_INT32"}}}, {"name": "progan/Run/progan/cond/then/_0/cond/else/_170/cond/then/_383/Upscale2D_1/Tile/multiples", "op": "Const", "input": ["^progan/Run/progan/cond/then/_0/cond/else/_170/cond/pivot_t/_387"], "device": "/device:CPU:0", "attr": {"value": {"tensor": {"dtype": "DT_INT32", "tensorShape": {"dim": [{"size": "6"}]}}}, "dtype": {"type": "DT_INT32"}}}, {"name": "progan/Run/progan/cond/then/_0/cond/else/_170/cond/then/_383/Upscale2D_1/Reshape_1/shape", "op": "Const", "input": ["^progan/Run/progan/cond/then/_0/cond/else/_170/cond/pivot_t/_387"], "device": "/device:CPU:0", "attr": {"value": {"tensor": {"dtype": "DT_INT32", "tensorShape": {"dim": [{"size": "4"}]}}}, "dtype": {"type": "DT_INT32"}}}, {"name": "progan/Run/progan/cond/then/_0/cond/then/_169/16x16/Conv0/Conv2D", "op": "Conv2D", "input": ["progan/Run/progan/cond/then/_0/cond/then/_169/16x16/Conv0/transpose", "progan/Run/progan/cond/then/_0/cond/then/_169/16x16/Conv0/mul"], "device": "/device:CPU:0", "attr": {"dilations": {"list": {"i": ["1", "1", "1", "1"]}}, "T": {"type": "DT_FLOAT"}, "strides": {"list": {"i": ["1", "1", "1", "1"]}}, "data_format": {"s": "TkhXQw=="}, "use_cudnn_on_gpu": {"b": true}, "explicit_paddings": {"list": {}}, "padding": {"s": "U0FNRQ=="}}}, {"name": "progan/Run/progan/cond/then/_0/cond/else/_170/cond/else/_384/ToRGB_lod7/transpose", "op": "Transpose", "input": ["progan/Run/progan/cond/then/_0/cond/else/_170/cond/Func/progan/Run/progan/cond/then/_0/cond/else/_170/input/_280/_389", "progan/Run/progan/cond/then/_0/cond/else/_170/cond/else/_384/ToRGB_lod7/transpose/perm"], "device": "/device:CPU:0", "attr": {"Tperm": {"type": "DT_INT32"}, "T": {"type": "DT_FLOAT"}}}, {"name": "progan/Run/progan/cond/then/_0/cond/else/_170/cond/else/_384/ToRGB_lod7/mul", "op": "Mul", "input": ["Func/progan/Run/progan/cond/then/_0/cond/else/_170/cond/else/_384/input/_502", "progan/Run/progan/cond/then/_0/cond/else/_170/cond/else/_384/ToRGB_lod7/wscale"], "device": "/device:CPU:0", "attr": {"T": {"type": "DT_FLOAT"}}}, {"name": "progan/Run/progan/cond/then/_0/cond/else/_170/cond/else/_384/ToRGB_lod7/Reshape", "op": "Reshape", "input": ["Func/progan/Run/progan/cond/then/_0/cond/else/_170/cond/else/_384/input/_504", "progan/Run/progan/cond/then/_0/cond/else/_170/cond/else/_384/ToRGB_lod7/Reshape/shape"], "device": "/device:CPU:0", "attr": {"T": {"type": "DT_FLOAT"}, "Tshape": {"type": "DT_INT32"}}}, {"name": "progan/Run/progan/cond/then/_0/cond/else/_170/cond/then/_383/ToRGB_lod8/transpose", "op": "Transpose", "input": ["progan/Run/progan/cond/then/_0/cond/else/_170/cond/Func/progan/Run/progan/cond/then/_0/cond/else/_170/input/_328/_392:1", "progan/Run/progan/cond/then/_0/cond/else/_170/cond/then/_383/ToRGB_lod8/transpose/perm"], "device": "/device:CPU:0", "attr": {"Tperm": {"type": "DT_INT32"}, "T": {"type": "DT_FLOAT"}}}, {"name": "progan/Run/progan/cond/then/_0/cond/else/_170/cond/then/_383/ToRGB_lod8/mul", "op": "Mul", "input": ["Func/progan/Run/progan/cond/then/_0/cond/else/_170/cond/then/_383/input/_495", "progan/Run/progan/cond/then/_0/cond/else/_170/cond/then/_383/ToRGB_lod8/wscale"], "device": "/device:CPU:0", "attr": {"T": {"type": "DT_FLOAT"}}}, {"name": "progan/Run/progan/cond/then/_0/cond/else/_170/cond/then/_383/ToRGB_lod8/Reshape", "op": "Reshape", "input": ["Func/progan/Run/progan/cond/then/_0/cond/else/_170/cond/then/_383/input/_497", "progan/Run/progan/cond/then/_0/cond/else/_170/cond/then/_383/ToRGB_lod8/Reshape/shape"], "device": "/device:CPU:0", "attr": {"T": {"type": "DT_FLOAT"}, "Tshape": {"type": "DT_INT32"}}}, {"name": "progan/Run/progan/cond/then/_0/cond/else/_170/cond/then/_383/ToRGB_lod7/transpose", "op": "Transpose", "input": ["progan/Run/progan/cond/then/_0/cond/else/_170/cond/Func/progan/Run/progan/cond/then/_0/cond/else/_170/input/_280/_389:1", "progan/Run/progan/cond/then/_0/cond/else/_170/cond/then/_383/ToRGB_lod7/transpose/perm"], "device": "/device:CPU:0", "attr": {"Tperm": {"type": "DT_INT32"}, "T": {"type": "DT_FLOAT"}}}, {"name": "progan/Run/progan/cond/then/_0/cond/else/_170/cond/then/_383/ToRGB_lod7/mul", "op": "Mul", "input": ["Func/progan/Run/progan/cond/then/_0/cond/else/_170/cond/then/_383/input/_492", "progan/Run/progan/cond/then/_0/cond/else/_170/cond/then/_383/ToRGB_lod7/wscale"], "device": "/device:CPU:0", "attr": {"T": {"type": "DT_FLOAT"}}}, {"name": "progan/Run/progan/cond/then/_0/cond/else/_170/cond/then/_383/ToRGB_lod7/Reshape", "op": "Reshape", "input": ["Func/progan/Run/progan/cond/then/_0/cond/else/_170/cond/then/_383/input/_494", "progan/Run/progan/cond/then/_0/cond/else/_170/cond/then/_383/ToRGB_lod7/Reshape/shape"], "device": "/device:CPU:0", "attr": {"T": {"type": "DT_FLOAT"}, "Tshape": {"type": "DT_INT32"}}}, {"name": "progan/Run/progan/cond/then/_0/cond/else/_170/cond/then/_383/sub", "op": "Sub", "input": ["Func/progan/Run/progan/cond/then/_0/cond/else/_170/cond/then/_383/input/_498", "progan/Run/progan/cond/then/_0/cond/else/_170/cond/then/_383/sub/y"], "device": "/device:CPU:0", "attr": {"T": {"type": "DT_FLOAT"}}}, {"name": "progan/Run/progan/cond/then/_0/cond/then/_169/16x16/Conv0/transpose_1", "op": "Transpose", "input": ["progan/Run/progan/cond/then/_0/cond/then/_169/16x16/Conv0/Conv2D", "progan/Run/progan/cond/then/_0/cond/then/_169/16x16/Conv0/transpose_1/perm"], "device": "/device:CPU:0", "attr": {"Tperm": {"type": "DT_INT32"}, "T": {"type": "DT_FLOAT"}}}, {"name": "progan/Run/progan/cond/then/_0/cond/else/_170/cond/else/_384/ToRGB_lod7/Conv2D", "op": "Conv2D", "input": ["progan/Run/progan/cond/then/_0/cond/else/_170/cond/else/_384/ToRGB_lod7/transpose", "progan/Run/progan/cond/then/_0/cond/else/_170/cond/else/_384/ToRGB_lod7/mul"], "device": "/device:CPU:0", "attr": {"dilations": {"list": {"i": ["1", "1", "1", "1"]}}, "T": {"type": "DT_FLOAT"}, "strides": {"list": {"i": ["1", "1", "1", "1"]}}, "data_format": {"s": "TkhXQw=="}, "use_cudnn_on_gpu": {"b": true}, "explicit_paddings": {"list": {}}, "padding": {"s": "U0FNRQ=="}}}, {"name": "progan/Run/progan/cond/then/_0/cond/else/_170/cond/then/_383/ToRGB_lod8/Conv2D", "op": "Conv2D", "input": ["progan/Run/progan/cond/then/_0/cond/else/_170/cond/then/_383/ToRGB_lod8/transpose", "progan/Run/progan/cond/then/_0/cond/else/_170/cond/then/_383/ToRGB_lod8/mul"], "device": "/device:CPU:0", "attr": {"dilations": {"list": {"i": ["1", "1", "1", "1"]}}, "T": {"type": "DT_FLOAT"}, "strides": {"list": {"i": ["1", "1", "1", "1"]}}, "data_format": {"s": "TkhXQw=="}, "use_cudnn_on_gpu": {"b": true}, "explicit_paddings": {"list": {}}, "padding": {"s": "U0FNRQ=="}}}, {"name": "progan/Run/progan/cond/then/_0/cond/else/_170/cond/then/_383/ToRGB_lod7/Conv2D", "op": "Conv2D", "input": ["progan/Run/progan/cond/then/_0/cond/else/_170/cond/then/_383/ToRGB_lod7/transpose", "progan/Run/progan/cond/then/_0/cond/else/_170/cond/then/_383/ToRGB_lod7/mul"], "device": "/device:CPU:0", "attr": {"dilations": {"list": {"i": ["1", "1", "1", "1"]}}, "T": {"type": "DT_FLOAT"}, "strides": {"list": {"i": ["1", "1", "1", "1"]}}, "data_format": {"s": "TkhXQw=="}, "use_cudnn_on_gpu": {"b": true}, "explicit_paddings": {"list": {}}, "padding": {"s": "U0FNRQ=="}}}, {"name": "progan/Run/progan/cond/then/_0/cond/then/_169/16x16/Conv0/add", "op": "AddV2", "input": ["progan/Run/progan/cond/then/_0/cond/then/_169/16x16/Conv0/transpose_1", "progan/Run/progan/cond/then/_0/cond/then/_169/16x16/Conv0/Reshape"], "device": "/device:CPU:0", "attr": {"T": {"type": "DT_FLOAT"}}}, {"name": "progan/Run/progan/cond/then/_0/cond/else/_170/cond/else/_384/ToRGB_lod7/transpose_1", "op": "Transpose", "input": ["progan/Run/progan/cond/then/_0/cond/else/_170/cond/else/_384/ToRGB_lod7/Conv2D", "progan/Run/progan/cond/then/_0/cond/else/_170/cond/else/_384/ToRGB_lod7/transpose_1/perm"], "device": "/device:CPU:0", "attr": {"Tperm": {"type": "DT_INT32"}, "T": {"type": "DT_FLOAT"}}}, {"name": "progan/Run/progan/cond/then/_0/cond/else/_170/cond/then/_383/ToRGB_lod8/transpose_1", "op": "Transpose", "input": ["progan/Run/progan/cond/then/_0/cond/else/_170/cond/then/_383/ToRGB_lod8/Conv2D", "progan/Run/progan/cond/then/_0/cond/else/_170/cond/then/_383/ToRGB_lod8/transpose_1/perm"], "device": "/device:CPU:0", "attr": {"Tperm": {"type": "DT_INT32"}, "T": {"type": "DT_FLOAT"}}}, {"name": "progan/Run/progan/cond/then/_0/cond/else/_170/cond/then/_383/ToRGB_lod7/transpose_1", "op": "Transpose", "input": ["progan/Run/progan/cond/then/_0/cond/else/_170/cond/then/_383/ToRGB_lod7/Conv2D", "progan/Run/progan/cond/then/_0/cond/else/_170/cond/then/_383/ToRGB_lod7/transpose_1/perm"], "device": "/device:CPU:0", "attr": {"Tperm": {"type": "DT_INT32"}, "T": {"type": "DT_FLOAT"}}}, {"name": "progan/Run/progan/cond/then/_0/cond/then/_169/16x16/Conv0/LeakyRelu/mul", "op": "Mul", "input": ["progan/Run/progan/cond/then/_0/cond/then/_169/16x16/Conv0/add", "progan/Run/progan/cond/then/_0/cond/then/_169/16x16/Conv0/LeakyRelu/alpha"], "device": "/device:CPU:0", "attr": {"T": {"type": "DT_FLOAT"}}}, {"name": "progan/Run/progan/cond/then/_0/cond/else/_170/cond/else/_384/ToRGB_lod7/add", "op": "AddV2", "input": ["progan/Run/progan/cond/then/_0/cond/else/_170/cond/else/_384/ToRGB_lod7/transpose_1", "progan/Run/progan/cond/then/_0/cond/else/_170/cond/else/_384/ToRGB_lod7/Reshape"], "device": "/device:CPU:0", "attr": {"T": {"type": "DT_FLOAT"}}}, {"name": "progan/Run/progan/cond/then/_0/cond/else/_170/cond/then/_383/ToRGB_lod8/add", "op": "AddV2", "input": ["progan/Run/progan/cond/then/_0/cond/else/_170/cond/then/_383/ToRGB_lod8/transpose_1", "progan/Run/progan/cond/then/_0/cond/else/_170/cond/then/_383/ToRGB_lod8/Reshape"], "device": "/device:CPU:0", "attr": {"T": {"type": "DT_FLOAT"}}}, {"name": "progan/Run/progan/cond/then/_0/cond/else/_170/cond/then/_383/ToRGB_lod7/add", "op": "AddV2", "input": ["progan/Run/progan/cond/then/_0/cond/else/_170/cond/then/_383/ToRGB_lod7/transpose_1", "progan/Run/progan/cond/then/_0/cond/else/_170/cond/then/_383/ToRGB_lod7/Reshape"], "device": "/device:CPU:0", "attr": {"T": {"type": "DT_FLOAT"}}}, {"name": "progan/Run/progan/cond/then/_0/cond/then/_169/16x16/Conv0/LeakyRelu/Maximum", "op": "Maximum", "input": ["progan/Run/progan/cond/then/_0/cond/then/_169/16x16/Conv0/LeakyRelu/mul", "progan/Run/progan/cond/then/_0/cond/then/_169/16x16/Conv0/add"], "device": "/device:CPU:0", "attr": {"T": {"type": "DT_FLOAT"}}}, {"name": "progan/Run/progan/cond/then/_0/cond/else/_170/cond/else/_384/Upscale2D/Reshape", "op": "Reshape", "input": ["progan/Run/progan/cond/then/_0/cond/else/_170/cond/else/_384/ToRGB_lod7/add", "progan/Run/progan/cond/then/_0/cond/else/_170/cond/else/_384/Upscale2D/Reshape/shape"], "device": "/device:CPU:0", "attr": {"T": {"type": "DT_FLOAT"}, "Tshape": {"type": "DT_INT32"}}}, {"name": "progan/Run/progan/cond/then/_0/cond/else/_170/cond/then/_383/Upscale2D/Reshape", "op": "Reshape", "input": ["progan/Run/progan/cond/then/_0/cond/else/_170/cond/then/_383/ToRGB_lod8/add", "progan/Run/progan/cond/then/_0/cond/else/_170/cond/then/_383/Upscale2D/Reshape/shape"], "device": "/device:CPU:0", "attr": {"T": {"type": "DT_FLOAT"}, "Tshape": {"type": "DT_INT32"}}}, {"name": "progan/Run/progan/cond/then/_0/cond/then/_169/16x16/Conv0/PixelNorm/Square", "op": "Square", "input": ["progan/Run/progan/cond/then/_0/cond/then/_169/16x16/Conv0/LeakyRelu/Maximum"], "device": "/device:CPU:0", "attr": {"T": {"type": "DT_FLOAT"}}}, {"name": "progan/Run/progan/cond/then/_0/cond/else/_170/cond/else/_384/Upscale2D/Tile", "op": "Tile", "input": ["progan/Run/progan/cond/then/_0/cond/else/_170/cond/else/_384/Upscale2D/Reshape", "progan/Run/progan/cond/then/_0/cond/else/_170/cond/else/_384/Upscale2D/Tile/multiples"], "device": "/device:CPU:0", "attr": {"Tmultiples": {"type": "DT_INT32"}, "T": {"type": "DT_FLOAT"}}}, {"name": "progan/Run/progan/cond/then/_0/cond/else/_170/cond/then/_383/Upscale2D/Tile", "op": "Tile", "input": ["progan/Run/progan/cond/then/_0/cond/else/_170/cond/then/_383/Upscale2D/Reshape", "progan/Run/progan/cond/then/_0/cond/else/_170/cond/then/_383/Upscale2D/Tile/multiples"], "device": "/device:CPU:0", "attr": {"Tmultiples": {"type": "DT_INT32"}, "T": {"type": "DT_FLOAT"}}}, {"name": "progan/Run/progan/cond/then/_0/cond/then/_169/16x16/Conv0/PixelNorm/Mean", "op": "Mean", "input": ["progan/Run/progan/cond/then/_0/cond/then/_169/16x16/Conv0/PixelNorm/Square", "progan/Run/progan/cond/then/_0/cond/then/_169/16x16/Conv0/PixelNorm/Mean/reduction_indices"], "device": "/device:CPU:0", "attr": {"keep_dims": {"b": true}, "Tidx": {"type": "DT_INT32"}, "T": {"type": "DT_FLOAT"}}}, {"name": "progan/Run/progan/cond/then/_0/cond/else/_170/cond/else/_384/Upscale2D/Reshape_1", "op": "Reshape", "input": ["progan/Run/progan/cond/then/_0/cond/else/_170/cond/else/_384/Upscale2D/Tile", "progan/Run/progan/cond/then/_0/cond/else/_170/cond/else/_384/Upscale2D/Reshape_1/shape"], "attr": {"T": {"type": "DT_FLOAT"}, "Tshape": {"type": "DT_INT32"}}}, {"name": "progan/Run/progan/cond/then/_0/cond/else/_170/cond/then/_383/Upscale2D/Reshape_1", "op": "Reshape", "input": ["progan/Run/progan/cond/then/_0/cond/else/_170/cond/then/_383/Upscale2D/Tile", "progan/Run/progan/cond/then/_0/cond/else/_170/cond/then/_383/Upscale2D/Reshape_1/shape"], "device": "/device:CPU:0", "attr": {"T": {"type": "DT_FLOAT"}, "Tshape": {"type": "DT_INT32"}}}, {"name": "progan/Run/progan/cond/then/_0/cond/then/_169/16x16/Conv0/PixelNorm/add", "op": "AddV2", "input": ["progan/Run/progan/cond/then/_0/cond/then/_169/16x16/Conv0/PixelNorm/Mean", "progan/Run/progan/cond/then/_0/cond/then/_169/16x16/Conv0/PixelNorm/add/y"], "device": "/device:CPU:0", "attr": {"T": {"type": "DT_FLOAT"}}}, {"name": "progan/Run/progan/cond/then/_0/cond/else/_170/cond/then/_383/sub_1", "op": "Sub", "input": ["progan/Run/progan/cond/then/_0/cond/else/_170/cond/then/_383/Upscale2D/Reshape_1", "progan/Run/progan/cond/then/_0/cond/else/_170/cond/then/_383/ToRGB_lod7/add"], "device": "/device:CPU:0", "attr": {"T": {"type": "DT_FLOAT"}}}, {"name": "progan/Run/progan/cond/then/_0/cond/then/_169/16x16/Conv0/PixelNorm/Rsqrt", "op": "Rsqrt", "input": ["progan/Run/progan/cond/then/_0/cond/then/_169/16x16/Conv0/PixelNorm/add"], "device": "/device:CPU:0", "attr": {"T": {"type": "DT_FLOAT"}}}, {"name": "progan/Run/progan/cond/then/_0/cond/else/_170/cond/then/_383/mul", "op": "Mul", "input": ["progan/Run/progan/cond/then/_0/cond/else/_170/cond/then/_383/sub_1", "progan/Run/progan/cond/then/_0/cond/else/_170/cond/then/_383/sub"], "device": "/device:CPU:0", "attr": {"T": {"type": "DT_FLOAT"}}}, {"name": "progan/Run/progan/cond/then/_0/cond/then/_169/16x16/Conv0/PixelNorm/mul", "op": "Mul", "input": ["progan/Run/progan/cond/then/_0/cond/then/_169/16x16/Conv0/LeakyRelu/Maximum", "progan/Run/progan/cond/then/_0/cond/then/_169/16x16/Conv0/PixelNorm/Rsqrt"], "device": "/device:CPU:0", "attr": {"T": {"type": "DT_FLOAT"}}}, {"name": "progan/Run/progan/cond/then/_0/cond/else/_170/cond/then/_383/add", "op": "AddV2", "input": ["progan/Run/progan/cond/then/_0/cond/else/_170/cond/then/_383/ToRGB_lod7/add", "progan/Run/progan/cond/then/_0/cond/else/_170/cond/then/_383/mul"], "device": "/device:CPU:0", "attr": {"T": {"type": "DT_FLOAT"}}}, {"name": "progan/Run/progan/cond/then/_0/cond/then/_169/16x16/Conv1/transpose", "op": "Transpose", "input": ["progan/Run/progan/cond/then/_0/cond/then/_169/16x16/Conv0/PixelNorm/mul", "progan/Run/progan/cond/then/_0/cond/then/_169/16x16/Conv1/transpose/perm"], "device": "/device:CPU:0", "attr": {"Tperm": {"type": "DT_INT32"}, "T": {"type": "DT_FLOAT"}}}, {"name": "progan/Run/progan/cond/then/_0/cond/else/_170/cond/then/_383/Upscale2D_1/Reshape", "op": "Reshape", "input": ["progan/Run/progan/cond/then/_0/cond/else/_170/cond/then/_383/add", "progan/Run/progan/cond/then/_0/cond/else/_170/cond/then/_383/Upscale2D_1/Reshape/shape"], "device": "/device:CPU:0", "attr": {"T": {"type": "DT_FLOAT"}, "Tshape": {"type": "DT_INT32"}}}, {"name": "progan/Run/progan/cond/then/_0/cond/then/_169/16x16/Conv1/Conv2D", "op": "Conv2D", "input": ["progan/Run/progan/cond/then/_0/cond/then/_169/16x16/Conv1/transpose", "progan/Run/progan/cond/then/_0/cond/then/_169/16x16/Conv1/mul"], "device": "/device:CPU:0", "attr": {"dilations": {"list": {"i": ["1", "1", "1", "1"]}}, "T": {"type": "DT_FLOAT"}, "strides": {"list": {"i": ["1", "1", "1", "1"]}}, "data_format": {"s": "TkhXQw=="}, "use_cudnn_on_gpu": {"b": true}, "explicit_paddings": {"list": {}}, "padding": {"s": "U0FNRQ=="}}}, {"name": "progan/Run/progan/cond/then/_0/cond/else/_170/cond/then/_383/Upscale2D_1/Tile", "op": "Tile", "input": ["progan/Run/progan/cond/then/_0/cond/else/_170/cond/then/_383/Upscale2D_1/Reshape", "progan/Run/progan/cond/then/_0/cond/else/_170/cond/then/_383/Upscale2D_1/Tile/multiples"], "device": "/device:CPU:0", "attr": {"Tmultiples": {"type": "DT_INT32"}, "T": {"type": "DT_FLOAT"}}}, {"name": "progan/Run/progan/cond/then/_0/cond/then/_169/16x16/Conv1/transpose_1", "op": "Transpose", "input": ["progan/Run/progan/cond/then/_0/cond/then/_169/16x16/Conv1/Conv2D", "progan/Run/progan/cond/then/_0/cond/then/_169/16x16/Conv1/transpose_1/perm"], "device": "/device:CPU:0", "attr": {"Tperm": {"type": "DT_INT32"}, "T": {"type": "DT_FLOAT"}}}, {"name": "progan/Run/progan/cond/then/_0/cond/else/_170/cond/then/_383/Upscale2D_1/Reshape_1", "op": "Reshape", "input": ["progan/Run/progan/cond/then/_0/cond/else/_170/cond/then/_383/Upscale2D_1/Tile", "progan/Run/progan/cond/then/_0/cond/else/_170/cond/then/_383/Upscale2D_1/Reshape_1/shape"], "attr": {"T": {"type": "DT_FLOAT"}, "Tshape": {"type": "DT_INT32"}}}, {"name": "progan/Run/progan/cond/then/_0/cond/then/_169/16x16/Conv1/add", "op": "AddV2", "input": ["progan/Run/progan/cond/then/_0/cond/then/_169/16x16/Conv1/transpose_1", "progan/Run/progan/cond/then/_0/cond/then/_169/16x16/Conv1/Reshape"], "device": "/device:CPU:0", "attr": {"T": {"type": "DT_FLOAT"}}}, {"name": "progan/Run/progan/cond/then/_0/cond/else/_170/cond/output/_395", "op": "Merge", "input": ["progan/Run/progan/cond/then/_0/cond/else/_170/cond/then/_383/Upscale2D_1/Reshape_1", "progan/Run/progan/cond/then/_0/cond/else/_170/cond/else/_384/Upscale2D/Reshape_1"], "device": "/device:CPU:0", "attr": {"T": {"type": "DT_FLOAT"}, "N": {"i": "2"}}}, {"name": "progan/Run/progan/cond/then/_0/cond/then/_169/16x16/Conv1/LeakyRelu/mul", "op": "Mul", "input": ["progan/Run/progan/cond/then/_0/cond/then/_169/16x16/Conv1/add", "progan/Run/progan/cond/then/_0/cond/then/_169/16x16/Conv1/LeakyRelu/alpha"], "device": "/device:CPU:0", "attr": {"T": {"type": "DT_FLOAT"}}}, {"name": "progan/Run/progan/cond/then/_0/cond/then/_169/16x16/Conv1/LeakyRelu/Maximum", "op": "Maximum", "input": ["progan/Run/progan/cond/then/_0/cond/then/_169/16x16/Conv1/LeakyRelu/mul", "progan/Run/progan/cond/then/_0/cond/then/_169/16x16/Conv1/add"], "device": "/device:CPU:0", "attr": {"T": {"type": "DT_FLOAT"}}}, {"name": "progan/Run/progan/cond/then/_0/cond/then/_169/16x16/Conv1/PixelNorm/Square", "op": "Square", "input": ["progan/Run/progan/cond/then/_0/cond/then/_169/16x16/Conv1/LeakyRelu/Maximum"], "device": "/device:CPU:0", "attr": {"T": {"type": "DT_FLOAT"}}}, {"name": "progan/Run/progan/cond/then/_0/cond/then/_169/16x16/Conv1/PixelNorm/Mean", "op": "Mean", "input": ["progan/Run/progan/cond/then/_0/cond/then/_169/16x16/Conv1/PixelNorm/Square", "progan/Run/progan/cond/then/_0/cond/then/_169/16x16/Conv1/PixelNorm/Mean/reduction_indices"], "device": "/device:CPU:0", "attr": {"keep_dims": {"b": true}, "Tidx": {"type": "DT_INT32"}, "T": {"type": "DT_FLOAT"}}}, {"name": "progan/Run/progan/cond/then/_0/cond/then/_169/16x16/Conv1/PixelNorm/add", "op": "AddV2", "input": ["progan/Run/progan/cond/then/_0/cond/then/_169/16x16/Conv1/PixelNorm/Mean", "progan/Run/progan/cond/then/_0/cond/then/_169/16x16/Conv1/PixelNorm/add/y"], "device": "/device:CPU:0", "attr": {"T": {"type": "DT_FLOAT"}}}, {"name": "progan/Run/progan/cond/then/_0/cond/then/_169/16x16/Conv1/PixelNorm/Rsqrt", "op": "Rsqrt", "input": ["progan/Run/progan/cond/then/_0/cond/then/_169/16x16/Conv1/PixelNorm/add"], "device": "/device:CPU:0", "attr": {"T": {"type": "DT_FLOAT"}}}, {"name": "progan/Run/progan/cond/then/_0/cond/then/_169/16x16/Conv1/PixelNorm/mul", "op": "Mul", "input": ["progan/Run/progan/cond/then/_0/cond/then/_169/16x16/Conv1/LeakyRelu/Maximum", "progan/Run/progan/cond/then/_0/cond/then/_169/16x16/Conv1/PixelNorm/Rsqrt"], "device": "/device:CPU:0", "attr": {"T": {"type": "DT_FLOAT"}}}, {"name": "progan/Run/progan/cond/then/_0/cond/then/_169/cond/progan/Run/progan/cond/then/_0/cond/then/_169/16x16/Conv1/PixelNorm/mul/_337", "op": "Switch", "input": ["progan/Run/progan/cond/then/_0/cond/then/_169/16x16/Conv1/PixelNorm/mul", "progan/Run/progan/cond/then/_0/cond/then/_169/Less"], "device": "/device:CPU:0", "attr": {"T": {"type": "DT_FLOAT"}}}, {"name": "progan/Run/progan/cond/then/_0/cond/then/_169/cond/pivot_t/_336", "op": "NoOp", "input": ["^Func/progan/Run/progan/cond/then/_0/cond/then/_169/input/_272", "^progan/Run/progan/cond/then/_0/cond/then/_169/16x16/Conv1/PixelNorm/mul", "^progan/Run/progan/cond/then/_0/cond/then/_169/Greater", "^Func/progan/Run/progan/cond/then/_0/cond/then/_169/input/_232", "^Func/progan/Run/progan/cond/then/_0/cond/then/_169/input/_233", "^Func/progan/Run/progan/cond/then/_0/cond/then/_169/input/_234", "^Func/progan/Run/progan/cond/then/_0/cond/then/_169/input/_235", "^Func/progan/Run/progan/cond/then/_0/cond/then/_169/input/_236", "^Func/progan/Run/progan/cond/then/_0/cond/then/_169/input/_237", "^Func/progan/Run/progan/cond/then/_0/cond/then/_169/input/_238", "^Func/progan/Run/progan/cond/then/_0/cond/then/_169/input/_239", "^Func/progan/Run/progan/cond/then/_0/cond/then/_169/input/_240", "^Func/progan/Run/progan/cond/then/_0/cond/then/_169/input/_241", "^Func/progan/Run/progan/cond/then/_0/cond/then/_169/input/_242", "^Func/progan/Run/progan/cond/then/_0/cond/then/_169/input/_243", "^Func/progan/Run/progan/cond/then/_0/cond/then/_169/input/_244", "^Func/progan/Run/progan/cond/then/_0/cond/then/_169/input/_245", "^Func/progan/Run/progan/cond/then/_0/cond/then/_169/input/_246", "^Func/progan/Run/progan/cond/then/_0/cond/then/_169/input/_247", "^Func/progan/Run/progan/cond/then/_0/cond/then/_169/input/_248", "^Func/progan/Run/progan/cond/then/_0/cond/then/_169/input/_249", "^Func/progan/Run/progan/cond/then/_0/cond/then/_169/input/_250", "^Func/progan/Run/progan/cond/then/_0/cond/then/_169/input/_251", "^Func/progan/Run/progan/cond/then/_0/cond/then/_169/input/_252", "^Func/progan/Run/progan/cond/then/_0/cond/then/_169/input/_253", "^Func/progan/Run/progan/cond/then/_0/cond/then/_169/input/_254", "^Func/progan/Run/progan/cond/then/_0/cond/then/_169/input/_255", "^Func/progan/Run/progan/cond/then/_0/cond/then/_169/input/_256", "^Func/progan/Run/progan/cond/then/_0/cond/then/_169/input/_257", "^Func/progan/Run/progan/cond/then/_0/cond/then/_169/input/_258", "^Func/progan/Run/progan/cond/then/_0/cond/then/_169/input/_259", "^Func/progan/Run/progan/cond/then/_0/cond/then/_169/input/_260", "^Func/progan/Run/progan/cond/then/_0/cond/then/_169/input/_261", "^Func/progan/Run/progan/cond/then/_0/cond/then/_169/input/_262", "^Func/progan/Run/progan/cond/then/_0/cond/then/_169/input/_263", "^Func/progan/Run/progan/cond/then/_0/cond/then/_169/input/_264", "^Func/progan/Run/progan/cond/then/_0/cond/then/_169/input/_265", "^Func/progan/Run/progan/cond/then/_0/cond/then/_169/input/_266", "^Func/progan/Run/progan/cond/then/_0/cond/then/_169/input/_267", "^Func/progan/Run/progan/cond/then/_0/cond/then/_169/input/_268", "^Func/progan/Run/progan/cond/then/_0/cond/then/_169/input/_269", "^Func/progan/Run/progan/cond/then/_0/cond/then/_169/input/_270", "^Func/progan/Run/progan/cond/then/_0/cond/then/_169/input/_271"], "device": "/device:CPU:0"}, {"name": "progan/Run/progan/cond/then/_0/cond/then/_169/cond/switch_pred/_334", "op": "Switch", "input": ["progan/Run/progan/cond/then/_0/cond/then/_169/Less", "progan/Run/progan/cond/then/_0/cond/then/_169/Less", "^progan/Run/progan/cond/then/_0/cond/then/_169/Greater", "^Func/progan/Run/progan/cond/then/_0/cond/then/_169/input/_232", "^Func/progan/Run/progan/cond/then/_0/cond/then/_169/input/_233", "^Func/progan/Run/progan/cond/then/_0/cond/then/_169/input/_234", "^Func/progan/Run/progan/cond/then/_0/cond/then/_169/input/_235", "^Func/progan/Run/progan/cond/then/_0/cond/then/_169/input/_236", "^Func/progan/Run/progan/cond/then/_0/cond/then/_169/input/_237", "^Func/progan/Run/progan/cond/then/_0/cond/then/_169/input/_238", "^Func/progan/Run/progan/cond/then/_0/cond/then/_169/input/_239", "^Func/progan/Run/progan/cond/then/_0/cond/then/_169/input/_240", "^Func/progan/Run/progan/cond/then/_0/cond/then/_169/input/_241", "^Func/progan/Run/progan/cond/then/_0/cond/then/_169/input/_242", "^Func/progan/Run/progan/cond/then/_0/cond/then/_169/input/_243", "^Func/progan/Run/progan/cond/then/_0/cond/then/_169/input/_244", "^Func/progan/Run/progan/cond/then/_0/cond/then/_169/input/_245", "^Func/progan/Run/progan/cond/then/_0/cond/then/_169/input/_246", "^Func/progan/Run/progan/cond/then/_0/cond/then/_169/input/_247", "^Func/progan/Run/progan/cond/then/_0/cond/then/_169/input/_248", "^Func/progan/Run/progan/cond/then/_0/cond/then/_169/input/_249", "^Func/progan/Run/progan/cond/then/_0/cond/then/_169/input/_250", "^Func/progan/Run/progan/cond/then/_0/cond/then/_169/input/_251", "^Func/progan/Run/progan/cond/then/_0/cond/then/_169/input/_252", "^Func/progan/Run/progan/cond/then/_0/cond/then/_169/input/_253", "^Func/progan/Run/progan/cond/then/_0/cond/then/_169/input/_254", "^Func/progan/Run/progan/cond/then/_0/cond/then/_169/input/_255", "^Func/progan/Run/progan/cond/then/_0/cond/then/_169/input/_256", "^Func/progan/Run/progan/cond/then/_0/cond/then/_169/input/_257", "^Func/progan/Run/progan/cond/then/_0/cond/then/_169/input/_258", "^Func/progan/Run/progan/cond/then/_0/cond/then/_169/input/_259", "^Func/progan/Run/progan/cond/then/_0/cond/then/_169/input/_260", "^Func/progan/Run/progan/cond/then/_0/cond/then/_169/input/_261", "^Func/progan/Run/progan/cond/then/_0/cond/then/_169/input/_262", "^Func/progan/Run/progan/cond/then/_0/cond/then/_169/input/_263", "^Func/progan/Run/progan/cond/then/_0/cond/then/_169/input/_264", "^Func/progan/Run/progan/cond/then/_0/cond/then/_169/input/_265", "^Func/progan/Run/progan/cond/then/_0/cond/then/_169/input/_266", "^Func/progan/Run/progan/cond/then/_0/cond/then/_169/input/_267", "^Func/progan/Run/progan/cond/then/_0/cond/then/_169/input/_268", "^Func/progan/Run/progan/cond/then/_0/cond/then/_169/input/_269", "^Func/progan/Run/progan/cond/then/_0/cond/then/_169/input/_270", "^Func/progan/Run/progan/cond/then/_0/cond/then/_169/input/_271", "^Func/progan/Run/progan/cond/then/_0/cond/then/_169/input/_272", "^progan/Run/progan/cond/then/_0/cond/then/_169/16x16/Conv1/PixelNorm/mul"], "device": "/device:CPU:0", "attr": {"T": {"type": "DT_BOOL"}}}, {"name": "progan/Run/progan/cond/then/_0/cond/then/_169/cond/then/_332/Less", "op": "Const", "input": ["^progan/Run/progan/cond/then/_0/cond/then/_169/cond/pivot_t/_336"], "device": "/device:CPU:0", "attr": {"value": {"tensor": {"dtype": "DT_BOOL", "tensorShape": {}}}, "dtype": {"type": "DT_BOOL"}}}, {"name": "progan/Run/progan/cond/then/_0/cond/then/_169/cond/then/_332/Greater", "op": "Const", "input": ["^progan/Run/progan/cond/then/_0/cond/then/_169/cond/pivot_t/_336"], "device": "/device:CPU:0", "attr": {"value": {"tensor": {"dtype": "DT_BOOL", "tensorShape": {}}}, "dtype": {"type": "DT_BOOL"}}}, {"name": "Func/progan/Run/progan/cond/then/_0/cond/then/_169/cond/then/_332/input/_403", "op": "Const", "input": ["^progan/Run/progan/cond/then/_0/cond/then/_169/cond/pivot_t/_336"], "attr": {"value": {"tensor": {"dtype": "DT_FLOAT", "tensorShape": {}}}, "dtype": {"type": "DT_FLOAT"}}}, {"name": "Func/progan/Run/progan/cond/then/_0/cond/then/_169/cond/then/_332/input/_404", "op": "NoOp", "input": ["^progan/Run/progan/cond/then/_0/cond/then/_169/cond/pivot_t/_336"]}, {"name": "Func/progan/Run/progan/cond/then/_0/cond/then/_169/cond/then/_332/input/_405", "op": "NoOp", "input": ["^progan/Run/progan/cond/then/_0/cond/then/_169/cond/pivot_t/_336"]}, {"name": "Func/progan/Run/progan/cond/then/_0/cond/then/_169/cond/then/_332/input/_406", "op": "NoOp", "input": ["^progan/Run/progan/cond/then/_0/cond/then/_169/cond/pivot_t/_336"]}, {"name": "Func/progan/Run/progan/cond/then/_0/cond/then/_169/cond/then/_332/input/_407", "op": "NoOp", "input": ["^progan/Run/progan/cond/then/_0/cond/then/_169/cond/pivot_t/_336"]}, {"name": "Func/progan/Run/progan/cond/then/_0/cond/then/_169/cond/then/_332/input/_408", "op": "NoOp", "input": ["^progan/Run/progan/cond/then/_0/cond/then/_169/cond/pivot_t/_336"]}, {"name": "Func/progan/Run/progan/cond/then/_0/cond/then/_169/cond/then/_332/input/_409", "op": "NoOp", "input": ["^progan/Run/progan/cond/then/_0/cond/then/_169/cond/pivot_t/_336"]}, {"name": "Func/progan/Run/progan/cond/then/_0/cond/then/_169/cond/then/_332/input/_410", "op": "NoOp", "input": ["^progan/Run/progan/cond/then/_0/cond/then/_169/cond/pivot_t/_336"]}, {"name": "Func/progan/Run/progan/cond/then/_0/cond/then/_169/cond/then/_332/input/_411", "op": "NoOp", "input": ["^progan/Run/progan/cond/then/_0/cond/then/_169/cond/pivot_t/_336"]}, {"name": "Func/progan/Run/progan/cond/then/_0/cond/then/_169/cond/then/_332/input/_412", "op": "NoOp", "input": ["^progan/Run/progan/cond/then/_0/cond/then/_169/cond/pivot_t/_336"]}, {"name": "Func/progan/Run/progan/cond/then/_0/cond/then/_169/cond/then/_332/input/_413", "op": "NoOp", "input": ["^progan/Run/progan/cond/then/_0/cond/then/_169/cond/pivot_t/_336"]}, {"name": "Func/progan/Run/progan/cond/then/_0/cond/then/_169/cond/then/_332/input/_414", "op": "NoOp", "input": ["^progan/Run/progan/cond/then/_0/cond/then/_169/cond/pivot_t/_336"]}, {"name": "Func/progan/Run/progan/cond/then/_0/cond/then/_169/cond/then/_332/input/_415", "op": "NoOp", "input": ["^progan/Run/progan/cond/then/_0/cond/then/_169/cond/pivot_t/_336"]}, {"name": "Func/progan/Run/progan/cond/then/_0/cond/then/_169/cond/then/_332/input/_416", "op": "NoOp", "input": ["^progan/Run/progan/cond/then/_0/cond/then/_169/cond/pivot_t/_336"]}, {"name": "Func/progan/Run/progan/cond/then/_0/cond/then/_169/cond/then/_332/input/_417", "op": "NoOp", "input": ["^progan/Run/progan/cond/then/_0/cond/then/_169/cond/pivot_t/_336"]}, {"name": "Func/progan/Run/progan/cond/then/_0/cond/then/_169/cond/then/_332/input/_418", "op": "NoOp", "input": ["^progan/Run/progan/cond/then/_0/cond/then/_169/cond/pivot_t/_336"]}, {"name": "Func/progan/Run/progan/cond/then/_0/cond/then/_169/cond/then/_332/input/_419", "op": "NoOp", "input": ["^progan/Run/progan/cond/then/_0/cond/then/_169/cond/pivot_t/_336"]}, {"name": "Func/progan/Run/progan/cond/then/_0/cond/then/_169/cond/then/_332/input/_420", "op": "NoOp", "input": ["^progan/Run/progan/cond/then/_0/cond/then/_169/cond/pivot_t/_336"]}, {"name": "Func/progan/Run/progan/cond/then/_0/cond/then/_169/cond/then/_332/input/_421", "op": "NoOp", "input": ["^progan/Run/progan/cond/then/_0/cond/then/_169/cond/pivot_t/_336"]}, {"name": "Func/progan/Run/progan/cond/then/_0/cond/then/_169/cond/then/_332/input/_422", "op": "NoOp", "input": ["^progan/Run/progan/cond/then/_0/cond/then/_169/cond/pivot_t/_336"]}, {"name": "Func/progan/Run/progan/cond/then/_0/cond/then/_169/cond/then/_332/input/_423", "op": "NoOp", "input": ["^progan/Run/progan/cond/then/_0/cond/then/_169/cond/pivot_t/_336"]}, {"name": "Func/progan/Run/progan/cond/then/_0/cond/then/_169/cond/then/_332/input/_424", "op": "NoOp", "input": ["^progan/Run/progan/cond/then/_0/cond/then/_169/cond/pivot_t/_336"]}, {"name": "Func/progan/Run/progan/cond/then/_0/cond/then/_169/cond/then/_332/input/_425", "op": "NoOp", "input": ["^progan/Run/progan/cond/then/_0/cond/then/_169/cond/pivot_t/_336"]}, {"name": "Func/progan/Run/progan/cond/then/_0/cond/then/_169/cond/then/_332/input/_426", "op": "NoOp", "input": ["^progan/Run/progan/cond/then/_0/cond/then/_169/cond/pivot_t/_336"]}, {"name": "Func/progan/Run/progan/cond/then/_0/cond/then/_169/cond/then/_332/input/_427", "op": "NoOp", "input": ["^progan/Run/progan/cond/then/_0/cond/then/_169/cond/pivot_t/_336"]}, {"name": "Func/progan/Run/progan/cond/then/_0/cond/then/_169/cond/then/_332/input/_428", "op": "NoOp", "input": ["^progan/Run/progan/cond/then/_0/cond/then/_169/cond/pivot_t/_336"]}, {"name": "Func/progan/Run/progan/cond/then/_0/cond/then/_169/cond/then/_332/input/_429", "op": "NoOp", "input": ["^progan/Run/progan/cond/then/_0/cond/then/_169/cond/pivot_t/_336"]}, {"name": "Func/progan/Run/progan/cond/then/_0/cond/then/_169/cond/then/_332/input/_430", "op": "NoOp", "input": ["^progan/Run/progan/cond/then/_0/cond/then/_169/cond/pivot_t/_336"]}, {"name": "Func/progan/Run/progan/cond/then/_0/cond/then/_169/cond/then/_332/input/_431", "op": "NoOp", "input": ["^progan/Run/progan/cond/then/_0/cond/then/_169/cond/pivot_t/_336"]}, {"name": "Func/progan/Run/progan/cond/then/_0/cond/then/_169/cond/then/_332/input/_432", "op": "NoOp", "input": ["^progan/Run/progan/cond/then/_0/cond/then/_169/cond/pivot_t/_336"]}, {"name": "Func/progan/Run/progan/cond/then/_0/cond/then/_169/cond/then/_332/input/_433", "op": "NoOp", "input": ["^progan/Run/progan/cond/then/_0/cond/then/_169/cond/pivot_t/_336"]}, {"name": "Func/progan/Run/progan/cond/then/_0/cond/then/_169/cond/then/_332/input/_434", "op": "Const", "input": ["^progan/Run/progan/cond/then/_0/cond/then/_169/cond/pivot_t/_336"], "attr": {"value": {"tensor": {"dtype": "DT_FLOAT", "tensorShape": {"dim": [{"size": "1"}, {"size": "1"}, {"size": "512"}, {"size": "3"}]}}}, "dtype": {"type": "DT_FLOAT"}}}, {"name": "Func/progan/Run/progan/cond/then/_0/cond/then/_169/cond/then/_332/input/_435", "op": "Const", "input": ["^progan/Run/progan/cond/then/_0/cond/then/_169/cond/pivot_t/_336"], "attr": {"value": {"tensor": {"dtype": "DT_FLOAT", "tensorShape": {"dim": [{"size": "3"}]}}}, "dtype": {"type": "DT_FLOAT"}}}, {"name": "Func/progan/Run/progan/cond/then/_0/cond/then/_169/cond/then/_332/input/_436", "op": "Const", "input": ["^progan/Run/progan/cond/then/_0/cond/then/_169/cond/pivot_t/_336"], "attr": {"value": {"tensor": {"dtype": "DT_FLOAT", "tensorShape": {"dim": [{"size": "1"}, {"size": "1"}, {"size": "512"}, {"size": "3"}]}}}, "dtype": {"type": "DT_FLOAT"}}}, {"name": "Func/progan/Run/progan/cond/then/_0/cond/then/_169/cond/then/_332/input/_437", "op": "Const", "input": ["^progan/Run/progan/cond/then/_0/cond/then/_169/cond/pivot_t/_336"], "attr": {"value": {"tensor": {"dtype": "DT_FLOAT", "tensorShape": {"dim": [{"size": "3"}]}}}, "dtype": {"type": "DT_FLOAT"}}}, {"name": "progan/Run/progan/cond/then/_0/cond/then/_169/cond/then/_332/32x32/Conv1/LeakyRelu/alpha", "op": "Const", "input": ["^progan/Run/progan/cond/then/_0/cond/then/_169/cond/pivot_t/_336"], "device": "/device:CPU:0", "attr": {"value": {"tensor": {"dtype": "DT_FLOAT", "tensorShape": {}}}, "dtype": {"type": "DT_FLOAT"}}}, {"name": "progan/Run/progan/cond/then/_0/cond/then/_169/cond/then/_332/32x32/Conv0/LeakyRelu/alpha", "op": "Const", "input": ["^progan/Run/progan/cond/then/_0/cond/then/_169/cond/pivot_t/_336"], "device": "/device:CPU:0", "attr": {"value": {"tensor": {"dtype": "DT_FLOAT", "tensorShape": {}}}, "dtype": {"type": "DT_FLOAT"}}}, {"name": "progan/Run/progan/cond/then/_0/cond/then/_169/cond/then/_332/32x32/Upscale2D/Reshape/shape", "op": "Const", "input": ["^progan/Run/progan/cond/then/_0/cond/then/_169/cond/pivot_t/_336"], "device": "/device:CPU:0", "attr": {"value": {"tensor": {"dtype": "DT_INT32", "tensorShape": {"dim": [{"size": "6"}]}}}, "dtype": {"type": "DT_INT32"}}}, {"name": "progan/Run/progan/cond/then/_0/cond/then/_169/cond/then/_332/32x32/Upscale2D/Tile/multiples", "op": "Const", "input": ["^progan/Run/progan/cond/then/_0/cond/then/_169/cond/pivot_t/_336"], "device": "/device:CPU:0", "attr": {"value": {"tensor": {"dtype": "DT_INT32", "tensorShape": {"dim": [{"size": "6"}]}}}, "dtype": {"type": "DT_INT32"}}}, {"name": "progan/Run/progan/cond/then/_0/cond/then/_169/cond/then/_332/32x32/Upscale2D/Reshape_1/shape", "op": "Const", "input": ["^progan/Run/progan/cond/then/_0/cond/then/_169/cond/pivot_t/_336"], "device": "/device:CPU:0", "attr": {"value": {"tensor": {"dtype": "DT_INT32", "tensorShape": {"dim": [{"size": "4"}]}}}, "dtype": {"type": "DT_INT32"}}}, {"name": "progan/Run/progan/cond/then/_0/cond/then/_169/cond/then/_332/32x32/Conv0/transpose/perm", "op": "Const", "input": ["^progan/Run/progan/cond/then/_0/cond/then/_169/cond/pivot_t/_336"], "device": "/device:CPU:0", "attr": {"value": {"tensor": {"dtype": "DT_INT32", "tensorShape": {"dim": [{"size": "4"}]}}}, "dtype": {"type": "DT_INT32"}}}, {"name": "progan/Run/progan/cond/then/_0/cond/then/_169/cond/then/_332/32x32/Conv0/mul", "op": "Const", "input": ["^progan/Run/progan/cond/then/_0/cond/then/_169/cond/pivot_t/_336"], "device": "/device:CPU:0", "attr": {"value": {"tensor": {"dtype": "DT_FLOAT", "tensorShape": {"dim": [{"size": "3"}, {"size": "3"}, {"size": "512"}, {"size": "512"}]}}}, "dtype": {"type": "DT_FLOAT"}}}, {"name": "progan/Run/progan/cond/then/_0/cond/then/_169/cond/then/_332/32x32/Conv0/transpose_1/perm", "op": "Const", "input": ["^progan/Run/progan/cond/then/_0/cond/then/_169/cond/pivot_t/_336"], "device": "/device:CPU:0", "attr": {"value": {"tensor": {"dtype": "DT_INT32", "tensorShape": {"dim": [{"size": "4"}]}}}, "dtype": {"type": "DT_INT32"}}}, {"name": "progan/Run/progan/cond/then/_0/cond/then/_169/cond/then/_332/32x32/Conv0/Reshape", "op": "Const", "input": ["^progan/Run/progan/cond/then/_0/cond/then/_169/cond/pivot_t/_336"], "device": "/device:CPU:0", "attr": {"value": {"tensor": {"dtype": "DT_FLOAT", "tensorShape": {"dim": [{"size": "1"}, {"size": "512"}, {"size": "1"}, {"size": "1"}]}}}, "dtype": {"type": "DT_FLOAT"}}}, {"name": "progan/Run/progan/cond/then/_0/cond/then/_169/cond/then/_332/32x32/Conv0/PixelNorm/Mean/reduction_indices", "op": "Const", "input": ["^progan/Run/progan/cond/then/_0/cond/then/_169/cond/pivot_t/_336"], "device": "/device:CPU:0", "attr": {"value": {"tensor": {"dtype": "DT_INT32", "tensorShape": {}}}, "dtype": {"type": "DT_INT32"}}}, {"name": "progan/Run/progan/cond/then/_0/cond/then/_169/cond/then/_332/32x32/Conv0/PixelNorm/add/y", "op": "Const", "input": ["^progan/Run/progan/cond/then/_0/cond/then/_169/cond/pivot_t/_336"], "device": "/device:CPU:0", "attr": {"value": {"tensor": {"dtype": "DT_FLOAT", "tensorShape": {}}}, "dtype": {"type": "DT_FLOAT"}}}, {"name": "progan/Run/progan/cond/then/_0/cond/then/_169/cond/then/_332/32x32/Conv1/transpose/perm", "op": "Const", "input": ["^progan/Run/progan/cond/then/_0/cond/then/_169/cond/pivot_t/_336"], "device": "/device:CPU:0", "attr": {"value": {"tensor": {"dtype": "DT_INT32", "tensorShape": {"dim": [{"size": "4"}]}}}, "dtype": {"type": "DT_INT32"}}}, {"name": "progan/Run/progan/cond/then/_0/cond/then/_169/cond/then/_332/32x32/Conv1/mul", "op": "Const", "input": ["^progan/Run/progan/cond/then/_0/cond/then/_169/cond/pivot_t/_336"], "device": "/device:CPU:0", "attr": {"value": {"tensor": {"dtype": "DT_FLOAT", "tensorShape": {"dim": [{"size": "3"}, {"size": "3"}, {"size": "512"}, {"size": "512"}]}}}, "dtype": {"type": "DT_FLOAT"}}}, {"name": "progan/Run/progan/cond/then/_0/cond/then/_169/cond/then/_332/32x32/Conv1/transpose_1/perm", "op": "Const", "input": ["^progan/Run/progan/cond/then/_0/cond/then/_169/cond/pivot_t/_336"], "device": "/device:CPU:0", "attr": {"value": {"tensor": {"dtype": "DT_INT32", "tensorShape": {"dim": [{"size": "4"}]}}}, "dtype": {"type": "DT_INT32"}}}, {"name": "progan/Run/progan/cond/then/_0/cond/then/_169/cond/then/_332/32x32/Conv1/Reshape", "op": "Const", "input": ["^progan/Run/progan/cond/then/_0/cond/then/_169/cond/pivot_t/_336"], "device": "/device:CPU:0", "attr": {"value": {"tensor": {"dtype": "DT_FLOAT", "tensorShape": {"dim": [{"size": "1"}, {"size": "512"}, {"size": "1"}, {"size": "1"}]}}}, "dtype": {"type": "DT_FLOAT"}}}, {"name": "progan/Run/progan/cond/then/_0/cond/then/_169/cond/then/_332/32x32/Conv1/PixelNorm/Mean/reduction_indices", "op": "Const", "input": ["^progan/Run/progan/cond/then/_0/cond/then/_169/cond/pivot_t/_336"], "device": "/device:CPU:0", "attr": {"value": {"tensor": {"dtype": "DT_INT32", "tensorShape": {}}}, "dtype": {"type": "DT_INT32"}}}, {"name": "progan/Run/progan/cond/then/_0/cond/then/_169/cond/then/_332/32x32/Conv1/PixelNorm/add/y", "op": "Const", "input": ["^progan/Run/progan/cond/then/_0/cond/then/_169/cond/pivot_t/_336"], "device": "/device:CPU:0", "attr": {"value": {"tensor": {"dtype": "DT_FLOAT", "tensorShape": {}}}, "dtype": {"type": "DT_FLOAT"}}}, {"name": "progan/Run/progan/cond/then/_0/cond/then/_169/cond/pivot_f/_335", "op": "Identity", "input": ["progan/Run/progan/cond/then/_0/cond/then/_169/cond/switch_pred/_334"], "device": "/device:CPU:0", "attr": {"T": {"type": "DT_BOOL"}}}, {"name": "progan/Run/progan/cond/then/_0/cond/then/_169/cond/then/_332/cond/Func/progan/Run/progan/cond/then/_0/cond/then/_169/cond/then/_332/input/_398/_552", "op": "Switch", "input": ["progan/Run/progan/cond/then/_0/cond/then/_169/cond/progan/Run/progan/cond/then/_0/cond/then/_169/16x16/Conv1/PixelNorm/mul/_337:1", "progan/Run/progan/cond/then/_0/cond/then/_169/cond/then/_332/Less"], "device": "/device:CPU:0", "attr": {"T": {"type": "DT_FLOAT"}}}, {"name": "progan/Run/progan/cond/then/_0/cond/then/_169/cond/then/_332/cond/progan/Run/progan/cond/then/_0/cond/then/_169/cond/then/_332/Greater/_550", "op": "Switch", "input": ["progan/Run/progan/cond/then/_0/cond/then/_169/cond/then/_332/Greater", "progan/Run/progan/cond/then/_0/cond/then/_169/cond/then/_332/Less"], "device": "/device:CPU:0", "attr": {"T": {"type": "DT_BOOL"}}}, {"name": "progan/Run/progan/cond/then/_0/cond/then/_169/cond/then/_332/cond/Func/progan/Run/progan/cond/then/_0/cond/then/_169/cond/then/_332/input/_403/_521", "op": "Switch", "input": ["Func/progan/Run/progan/cond/then/_0/cond/then/_169/cond/then/_332/input/_403", "progan/Run/progan/cond/then/_0/cond/then/_169/cond/then/_332/Less"], "attr": {"T": {"type": "DT_FLOAT"}}}, {"name": "progan/Run/progan/cond/then/_0/cond/then/_169/cond/then/_332/cond/Func/progan/Run/progan/cond/then/_0/cond/then/_169/cond/then/_332/input/_434/_548", "op": "Switch", "input": ["Func/progan/Run/progan/cond/then/_0/cond/then/_169/cond/then/_332/input/_434", "progan/Run/progan/cond/then/_0/cond/then/_169/cond/then/_332/Less"], "attr": {"T": {"type": "DT_FLOAT"}}}, {"name": "progan/Run/progan/cond/then/_0/cond/then/_169/cond/then/_332/cond/Func/progan/Run/progan/cond/then/_0/cond/then/_169/cond/then/_332/input/_435/_549", "op": "Switch", "input": ["Func/progan/Run/progan/cond/then/_0/cond/then/_169/cond/then/_332/input/_435", "progan/Run/progan/cond/then/_0/cond/then/_169/cond/then/_332/Less"], "attr": {"T": {"type": "DT_FLOAT"}}}, {"name": "progan/Run/progan/cond/then/_0/cond/then/_169/cond/then/_332/cond/Func/progan/Run/progan/cond/then/_0/cond/then/_169/cond/then/_332/input/_436/_551", "op": "Switch", "input": ["Func/progan/Run/progan/cond/then/_0/cond/then/_169/cond/then/_332/input/_436", "progan/Run/progan/cond/then/_0/cond/then/_169/cond/then/_332/Less"], "attr": {"T": {"type": "DT_FLOAT"}}}, {"name": "progan/Run/progan/cond/then/_0/cond/then/_169/cond/then/_332/cond/Func/progan/Run/progan/cond/then/_0/cond/then/_169/cond/then/_332/input/_437/_553", "op": "Switch", "input": ["Func/progan/Run/progan/cond/then/_0/cond/then/_169/cond/then/_332/input/_437", "progan/Run/progan/cond/then/_0/cond/then/_169/cond/then/_332/Less"], "attr": {"T": {"type": "DT_FLOAT"}}}, {"name": "progan/Run/progan/cond/then/_0/cond/then/_169/cond/then/_332/32x32/Upscale2D/Reshape", "op": "Reshape", "input": ["progan/Run/progan/cond/then/_0/cond/then/_169/cond/progan/Run/progan/cond/then/_0/cond/then/_169/16x16/Conv1/PixelNorm/mul/_337:1", "progan/Run/progan/cond/then/_0/cond/then/_169/cond/then/_332/32x32/Upscale2D/Reshape/shape"], "device": "/device:CPU:0", "attr": {"T": {"type": "DT_FLOAT"}, "Tshape": {"type": "DT_INT32"}}}, {"name": "Func/progan/Run/progan/cond/then/_0/cond/then/_169/cond/else/_333/input/_485", "op": "Identity", "input": ["progan/Run/progan/cond/then/_0/cond/then/_169/cond/progan/Run/progan/cond/then/_0/cond/then/_169/Greater/_377", "^progan/Run/progan/cond/then/_0/cond/then/_169/cond/pivot_f/_335"], "device": "/device:CPU:0", "attr": {"T": {"type": "DT_BOOL"}}}, {"name": "Func/progan/Run/progan/cond/then/_0/cond/then/_169/cond/else/_333/input/_445", "op": "Identity", "input": ["progan/Run/progan/cond/then/_0/cond/then/_169/cond/progan/Run/progan/cond/then/_0/cond/then/_169/16x16/Conv1/PixelNorm/mul/_337", "^progan/Run/progan/cond/then/_0/cond/then/_169/cond/pivot_f/_335"], "device": "/device:CPU:0", "attr": {"T": {"type": "DT_FLOAT"}}}, {"name": "Func/progan/Run/progan/cond/then/_0/cond/then/_169/cond/else/_333/input/_450", "op": "Identity", "input": ["progan/Run/progan/cond/then/_0/cond/then/_169/cond/Func/progan/Run/progan/cond/then/_0/cond/then/_169/input/_232/_342", "^progan/Run/progan/cond/then/_0/cond/then/_169/cond/pivot_f/_335"], "attr": {"T": {"type": "DT_FLOAT"}}}, {"name": "Func/progan/Run/progan/cond/then/_0/cond/then/_169/cond/else/_333/input/_483", "op": "Identity", "input": ["progan/Run/progan/cond/then/_0/cond/then/_169/cond/Func/progan/Run/progan/cond/then/_0/cond/then/_169/input/_269/_375", "^progan/Run/progan/cond/then/_0/cond/then/_169/cond/pivot_f/_335"], "attr": {"T": {"type": "DT_FLOAT"}}}, {"name": "Func/progan/Run/progan/cond/then/_0/cond/then/_169/cond/else/_333/input/_484", "op": "Identity", "input": ["progan/Run/progan/cond/then/_0/cond/then/_169/cond/Func/progan/Run/progan/cond/then/_0/cond/then/_169/input/_270/_376", "^progan/Run/progan/cond/then/_0/cond/then/_169/cond/pivot_f/_335"], "attr": {"T": {"type": "DT_FLOAT"}}}, {"name": "Func/progan/Run/progan/cond/then/_0/cond/then/_169/cond/else/_333/input/_486", "op": "Identity", "input": ["progan/Run/progan/cond/then/_0/cond/then/_169/cond/Func/progan/Run/progan/cond/then/_0/cond/then/_169/input/_271/_378", "^progan/Run/progan/cond/then/_0/cond/then/_169/cond/pivot_f/_335"], "attr": {"T": {"type": "DT_FLOAT"}}}, {"name": "Func/progan/Run/progan/cond/then/_0/cond/then/_169/cond/else/_333/input/_487", "op": "Identity", "input": ["progan/Run/progan/cond/then/_0/cond/then/_169/cond/Func/progan/Run/progan/cond/then/_0/cond/then/_169/input/_227/_379", "^progan/Run/progan/cond/then/_0/cond/then/_169/cond/pivot_f/_335"], "device": "/device:CPU:0", "attr": {"T": {"type": "DT_FLOAT"}}}, {"name": "Func/progan/Run/progan/cond/then/_0/cond/then/_169/cond/else/_333/input/_488", "op": "Identity", "input": ["progan/Run/progan/cond/then/_0/cond/then/_169/cond/Func/progan/Run/progan/cond/then/_0/cond/then/_169/input/_272/_380", "^progan/Run/progan/cond/then/_0/cond/then/_169/cond/pivot_f/_335"], "attr": {"T": {"type": "DT_FLOAT"}}}, {"name": "progan/Run/progan/cond/then/_0/cond/then/_169/cond/then/_332/32x32/Upscale2D/Tile", "op": "Tile", "input": ["progan/Run/progan/cond/then/_0/cond/then/_169/cond/then/_332/32x32/Upscale2D/Reshape", "progan/Run/progan/cond/then/_0/cond/then/_169/cond/then/_332/32x32/Upscale2D/Tile/multiples"], "device": "/device:CPU:0", "attr": {"Tmultiples": {"type": "DT_INT32"}, "T": {"type": "DT_FLOAT"}}}, {"name": "progan/Run/progan/cond/then/_0/cond/then/_169/cond/else/_333/cond/Func/progan/Run/progan/cond/then/_0/cond/then/_169/cond/else/_333/input/_445/_562", "op": "Switch", "input": ["Func/progan/Run/progan/cond/then/_0/cond/then/_169/cond/else/_333/input/_445", "Func/progan/Run/progan/cond/then/_0/cond/then/_169/cond/else/_333/input/_485"], "device": "/device:CPU:0", "attr": {"T": {"type": "DT_FLOAT"}}}, {"name": "progan/Run/progan/cond/then/_0/cond/then/_169/cond/else/_333/cond/Func/progan/Run/progan/cond/then/_0/cond/then/_169/cond/else/_333/input/_450/_567", "op": "Switch", "input": ["Func/progan/Run/progan/cond/then/_0/cond/then/_169/cond/else/_333/input/_450", "Func/progan/Run/progan/cond/then/_0/cond/then/_169/cond/else/_333/input/_485"], "attr": {"T": {"type": "DT_FLOAT"}}}, {"name": "progan/Run/progan/cond/then/_0/cond/then/_169/cond/else/_333/cond/Func/progan/Run/progan/cond/then/_0/cond/then/_169/cond/else/_333/input/_483/_561", "op": "Switch", "input": ["Func/progan/Run/progan/cond/then/_0/cond/then/_169/cond/else/_333/input/_483", "Func/progan/Run/progan/cond/then/_0/cond/then/_169/cond/else/_333/input/_485"], "attr": {"T": {"type": "DT_FLOAT"}}}, {"name": "progan/Run/progan/cond/then/_0/cond/then/_169/cond/else/_333/cond/Func/progan/Run/progan/cond/then/_0/cond/then/_169/cond/else/_333/input/_484/_563", "op": "Switch", "input": ["Func/progan/Run/progan/cond/then/_0/cond/then/_169/cond/else/_333/input/_484", "Func/progan/Run/progan/cond/then/_0/cond/then/_169/cond/else/_333/input/_485"], "attr": {"T": {"type": "DT_FLOAT"}}}, {"name": "progan/Run/progan/cond/then/_0/cond/then/_169/cond/else/_333/cond/Func/progan/Run/progan/cond/then/_0/cond/then/_169/cond/else/_333/input/_486/_564", "op": "Switch", "input": ["Func/progan/Run/progan/cond/then/_0/cond/then/_169/cond/else/_333/input/_486", "Func/progan/Run/progan/cond/then/_0/cond/then/_169/cond/else/_333/input/_485"], "attr": {"T": {"type": "DT_FLOAT"}}}, {"name": "progan/Run/progan/cond/then/_0/cond/then/_169/cond/else/_333/cond/Func/progan/Run/progan/cond/then/_0/cond/then/_169/cond/else/_333/input/_487/_565", "op": "Switch", "input": ["Func/progan/Run/progan/cond/then/_0/cond/then/_169/cond/else/_333/input/_487", "Func/progan/Run/progan/cond/then/_0/cond/then/_169/cond/else/_333/input/_485"], "device": "/device:CPU:0", "attr": {"T": {"type": "DT_FLOAT"}}}, {"name": "progan/Run/progan/cond/then/_0/cond/then/_169/cond/else/_333/cond/Func/progan/Run/progan/cond/then/_0/cond/then/_169/cond/else/_333/input/_488/_566", "op": "Switch", "input": ["Func/progan/Run/progan/cond/then/_0/cond/then/_169/cond/else/_333/input/_488", "Func/progan/Run/progan/cond/then/_0/cond/then/_169/cond/else/_333/input/_485"], "attr": {"T": {"type": "DT_FLOAT"}}}, {"name": "progan/Run/progan/cond/then/_0/cond/then/_169/cond/else/_333/cond/switch_pred/_558", "op": "Switch", "input": ["Func/progan/Run/progan/cond/then/_0/cond/then/_169/cond/else/_333/input/_485", "Func/progan/Run/progan/cond/then/_0/cond/then/_169/cond/else/_333/input/_485", "^Func/progan/Run/progan/cond/then/_0/cond/then/_169/cond/else/_333/input/_445", "^Func/progan/Run/progan/cond/then/_0/cond/then/_169/cond/else/_333/input/_450", "^Func/progan/Run/progan/cond/then/_0/cond/then/_169/cond/else/_333/input/_483", "^Func/progan/Run/progan/cond/then/_0/cond/then/_169/cond/else/_333/input/_484", "^Func/progan/Run/progan/cond/then/_0/cond/then/_169/cond/else/_333/input/_486", "^Func/progan/Run/progan/cond/then/_0/cond/then/_169/cond/else/_333/input/_487", "^Func/progan/Run/progan/cond/then/_0/cond/then/_169/cond/else/_333/input/_488"], "device": "/device:CPU:0", "attr": {"T": {"type": "DT_BOOL"}}}, {"name": "progan/Run/progan/cond/then/_0/cond/then/_169/cond/then/_332/32x32/Upscale2D/Reshape_1", "op": "Reshape", "input": ["progan/Run/progan/cond/then/_0/cond/then/_169/cond/then/_332/32x32/Upscale2D/Tile", "progan/Run/progan/cond/then/_0/cond/then/_169/cond/then/_332/32x32/Upscale2D/Reshape_1/shape"], "device": "/device:CPU:0", "attr": {"T": {"type": "DT_FLOAT"}, "Tshape": {"type": "DT_INT32"}}}, {"name": "progan/Run/progan/cond/then/_0/cond/then/_169/cond/else/_333/cond/pivot_f/_559", "op": "Identity", "input": ["progan/Run/progan/cond/then/_0/cond/then/_169/cond/else/_333/cond/switch_pred/_558"], "device": "/device:CPU:0", "attr": {"T": {"type": "DT_BOOL"}}}, {"name": "progan/Run/progan/cond/then/_0/cond/then/_169/cond/else/_333/cond/pivot_t/_560", "op": "Identity", "input": ["progan/Run/progan/cond/then/_0/cond/then/_169/cond/else/_333/cond/switch_pred/_558:1"], "device": "/device:CPU:0", "attr": {"T": {"type": "DT_BOOL"}}}, {"name": "progan/Run/progan/cond/then/_0/cond/then/_169/cond/then/_332/32x32/Conv0/transpose", "op": "Transpose", "input": ["progan/Run/progan/cond/then/_0/cond/then/_169/cond/then/_332/32x32/Upscale2D/Reshape_1", "progan/Run/progan/cond/then/_0/cond/then/_169/cond/then/_332/32x32/Conv0/transpose/perm"], "device": "/device:CPU:0", "attr": {"Tperm": {"type": "DT_INT32"}, "T": {"type": "DT_FLOAT"}}}, {"name": "progan/Run/progan/cond/then/_0/cond/then/_169/cond/else/_333/cond/else/_557/ToRGB_lod6/transpose/perm", "op": "Const", "input": ["^progan/Run/progan/cond/then/_0/cond/then/_169/cond/else/_333/cond/pivot_f/_559"], "device": "/device:CPU:0", "attr": {"value": {"tensor": {"dtype": "DT_INT32", "tensorShape": {"dim": [{"size": "4"}]}}}, "dtype": {"type": "DT_INT32"}}}, {"name": "Func/progan/Run/progan/cond/then/_0/cond/then/_169/cond/else/_333/cond/else/_557/input/_663", "op": "Identity", "input": ["progan/Run/progan/cond/then/_0/cond/then/_169/cond/else/_333/cond/Func/progan/Run/progan/cond/then/_0/cond/then/_169/cond/else/_333/input/_483/_561", "^progan/Run/progan/cond/then/_0/cond/then/_169/cond/else/_333/cond/pivot_f/_559"], "attr": {"T": {"type": "DT_FLOAT"}}}, {"name": "progan/Run/progan/cond/then/_0/cond/then/_169/cond/else/_333/cond/else/_557/ToRGB_lod6/wscale", "op": "Const", "input": ["^progan/Run/progan/cond/then/_0/cond/then/_169/cond/else/_333/cond/pivot_f/_559"], "device": "/device:CPU:0", "attr": {"value": {"tensor": {"dtype": "DT_FLOAT", "tensorShape": {}}}, "dtype": {"type": "DT_FLOAT"}}}, {"name": "progan/Run/progan/cond/then/_0/cond/then/_169/cond/else/_333/cond/else/_557/ToRGB_lod6/transpose_1/perm", "op": "Const", "input": ["^progan/Run/progan/cond/then/_0/cond/then/_169/cond/else/_333/cond/pivot_f/_559"], "device": "/device:CPU:0", "attr": {"value": {"tensor": {"dtype": "DT_INT32", "tensorShape": {"dim": [{"size": "4"}]}}}, "dtype": {"type": "DT_INT32"}}}, {"name": "Func/progan/Run/progan/cond/then/_0/cond/then/_169/cond/else/_333/cond/else/_557/input/_665", "op": "Identity", "input": ["progan/Run/progan/cond/then/_0/cond/then/_169/cond/else/_333/cond/Func/progan/Run/progan/cond/then/_0/cond/then/_169/cond/else/_333/input/_484/_563", "^progan/Run/progan/cond/then/_0/cond/then/_169/cond/else/_333/cond/pivot_f/_559"], "attr": {"T": {"type": "DT_FLOAT"}}}, {"name": "progan/Run/progan/cond/then/_0/cond/then/_169/cond/else/_333/cond/else/_557/ToRGB_lod6/Reshape/shape", "op": "Const", "input": ["^progan/Run/progan/cond/then/_0/cond/then/_169/cond/else/_333/cond/pivot_f/_559"], "device": "/device:CPU:0", "attr": {"value": {"tensor": {"dtype": "DT_INT32", "tensorShape": {"dim": [{"size": "4"}]}}}, "dtype": {"type": "DT_INT32"}}}, {"name": "progan/Run/progan/cond/then/_0/cond/then/_169/cond/else/_333/cond/else/_557/Upscale2D/Reshape/shape", "op": "Const", "input": ["^progan/Run/progan/cond/then/_0/cond/then/_169/cond/else/_333/cond/pivot_f/_559"], "device": "/device:CPU:0", "attr": {"value": {"tensor": {"dtype": "DT_INT32", "tensorShape": {"dim": [{"size": "6"}]}}}, "dtype": {"type": "DT_INT32"}}}, {"name": "progan/Run/progan/cond/then/_0/cond/then/_169/cond/else/_333/cond/else/_557/Upscale2D/Tile/multiples", "op": "Const", "input": ["^progan/Run/progan/cond/then/_0/cond/then/_169/cond/else/_333/cond/pivot_f/_559"], "device": "/device:CPU:0", "attr": {"value": {"tensor": {"dtype": "DT_INT32", "tensorShape": {"dim": [{"size": "6"}]}}}, "dtype": {"type": "DT_INT32"}}}, {"name": "progan/Run/progan/cond/then/_0/cond/then/_169/cond/else/_333/cond/else/_557/Upscale2D/Reshape_1/shape", "op": "Const", "input": ["^progan/Run/progan/cond/then/_0/cond/then/_169/cond/else/_333/cond/pivot_f/_559"], "device": "/device:CPU:0", "attr": {"value": {"tensor": {"dtype": "DT_INT32", "tensorShape": {"dim": [{"size": "4"}]}}}, "dtype": {"type": "DT_INT32"}}}, {"name": "progan/Run/progan/cond/then/_0/cond/then/_169/cond/else/_333/cond/then/_556/ToRGB_lod7/transpose/perm", "op": "Const", "input": ["^progan/Run/progan/cond/then/_0/cond/then/_169/cond/else/_333/cond/pivot_t/_560"], "device": "/device:CPU:0", "attr": {"value": {"tensor": {"dtype": "DT_INT32", "tensorShape": {"dim": [{"size": "4"}]}}}, "dtype": {"type": "DT_INT32"}}}, {"name": "Func/progan/Run/progan/cond/then/_0/cond/then/_169/cond/else/_333/cond/then/_556/input/_656", "op": "Identity", "input": ["progan/Run/progan/cond/then/_0/cond/then/_169/cond/else/_333/cond/Func/progan/Run/progan/cond/then/_0/cond/then/_169/cond/else/_333/input/_486/_564:1", "^progan/Run/progan/cond/then/_0/cond/then/_169/cond/else/_333/cond/pivot_t/_560"], "attr": {"T": {"type": "DT_FLOAT"}}}, {"name": "progan/Run/progan/cond/then/_0/cond/then/_169/cond/else/_333/cond/then/_556/ToRGB_lod7/wscale", "op": "Const", "input": ["^progan/Run/progan/cond/then/_0/cond/then/_169/cond/else/_333/cond/pivot_t/_560"], "device": "/device:CPU:0", "attr": {"value": {"tensor": {"dtype": "DT_FLOAT", "tensorShape": {}}}, "dtype": {"type": "DT_FLOAT"}}}, {"name": "progan/Run/progan/cond/then/_0/cond/then/_169/cond/else/_333/cond/then/_556/ToRGB_lod7/transpose_1/perm", "op": "Const", "input": ["^progan/Run/progan/cond/then/_0/cond/then/_169/cond/else/_333/cond/pivot_t/_560"], "device": "/device:CPU:0", "attr": {"value": {"tensor": {"dtype": "DT_INT32", "tensorShape": {"dim": [{"size": "4"}]}}}, "dtype": {"type": "DT_INT32"}}}, {"name": "Func/progan/Run/progan/cond/then/_0/cond/then/_169/cond/else/_333/cond/then/_556/input/_658", "op": "Identity", "input": ["progan/Run/progan/cond/then/_0/cond/then/_169/cond/else/_333/cond/Func/progan/Run/progan/cond/then/_0/cond/then/_169/cond/else/_333/input/_488/_566:1", "^progan/Run/progan/cond/then/_0/cond/then/_169/cond/else/_333/cond/pivot_t/_560"], "attr": {"T": {"type": "DT_FLOAT"}}}, {"name": "progan/Run/progan/cond/then/_0/cond/then/_169/cond/else/_333/cond/then/_556/ToRGB_lod7/Reshape/shape", "op": "Const", "input": ["^progan/Run/progan/cond/then/_0/cond/then/_169/cond/else/_333/cond/pivot_t/_560"], "device": "/device:CPU:0", "attr": {"value": {"tensor": {"dtype": "DT_INT32", "tensorShape": {"dim": [{"size": "4"}]}}}, "dtype": {"type": "DT_INT32"}}}, {"name": "progan/Run/progan/cond/then/_0/cond/then/_169/cond/else/_333/cond/then/_556/Upscale2D/Reshape/shape", "op": "Const", "input": ["^progan/Run/progan/cond/then/_0/cond/then/_169/cond/else/_333/cond/pivot_t/_560"], "device": "/device:CPU:0", "attr": {"value": {"tensor": {"dtype": "DT_INT32", "tensorShape": {"dim": [{"size": "6"}]}}}, "dtype": {"type": "DT_INT32"}}}, {"name": "progan/Run/progan/cond/then/_0/cond/then/_169/cond/else/_333/cond/then/_556/Upscale2D/Tile/multiples", "op": "Const", "input": ["^progan/Run/progan/cond/then/_0/cond/then/_169/cond/else/_333/cond/pivot_t/_560"], "device": "/device:CPU:0", "attr": {"value": {"tensor": {"dtype": "DT_INT32", "tensorShape": {"dim": [{"size": "6"}]}}}, "dtype": {"type": "DT_INT32"}}}, {"name": "progan/Run/progan/cond/then/_0/cond/then/_169/cond/else/_333/cond/then/_556/Upscale2D/Reshape_1/shape", "op": "Const", "input": ["^progan/Run/progan/cond/then/_0/cond/then/_169/cond/else/_333/cond/pivot_t/_560"], "device": "/device:CPU:0", "attr": {"value": {"tensor": {"dtype": "DT_INT32", "tensorShape": {"dim": [{"size": "4"}]}}}, "dtype": {"type": "DT_INT32"}}}, {"name": "progan/Run/progan/cond/then/_0/cond/then/_169/cond/else/_333/cond/then/_556/ToRGB_lod6/transpose/perm", "op": "Const", "input": ["^progan/Run/progan/cond/then/_0/cond/then/_169/cond/else/_333/cond/pivot_t/_560"], "device": "/device:CPU:0", "attr": {"value": {"tensor": {"dtype": "DT_INT32", "tensorShape": {"dim": [{"size": "4"}]}}}, "dtype": {"type": "DT_INT32"}}}, {"name": "Func/progan/Run/progan/cond/then/_0/cond/then/_169/cond/else/_333/cond/then/_556/input/_653", "op": "Identity", "input": ["progan/Run/progan/cond/then/_0/cond/then/_169/cond/else/_333/cond/Func/progan/Run/progan/cond/then/_0/cond/then/_169/cond/else/_333/input/_483/_561:1", "^progan/Run/progan/cond/then/_0/cond/then/_169/cond/else/_333/cond/pivot_t/_560"], "attr": {"T": {"type": "DT_FLOAT"}}}, {"name": "progan/Run/progan/cond/then/_0/cond/then/_169/cond/else/_333/cond/then/_556/ToRGB_lod6/wscale", "op": "Const", "input": ["^progan/Run/progan/cond/then/_0/cond/then/_169/cond/else/_333/cond/pivot_t/_560"], "device": "/device:CPU:0", "attr": {"value": {"tensor": {"dtype": "DT_FLOAT", "tensorShape": {}}}, "dtype": {"type": "DT_FLOAT"}}}, {"name": "progan/Run/progan/cond/then/_0/cond/then/_169/cond/else/_333/cond/then/_556/ToRGB_lod6/transpose_1/perm", "op": "Const", "input": ["^progan/Run/progan/cond/then/_0/cond/then/_169/cond/else/_333/cond/pivot_t/_560"], "device": "/device:CPU:0", "attr": {"value": {"tensor": {"dtype": "DT_INT32", "tensorShape": {"dim": [{"size": "4"}]}}}, "dtype": {"type": "DT_INT32"}}}, {"name": "Func/progan/Run/progan/cond/then/_0/cond/then/_169/cond/else/_333/cond/then/_556/input/_655", "op": "Identity", "input": ["progan/Run/progan/cond/then/_0/cond/then/_169/cond/else/_333/cond/Func/progan/Run/progan/cond/then/_0/cond/then/_169/cond/else/_333/input/_484/_563:1", "^progan/Run/progan/cond/then/_0/cond/then/_169/cond/else/_333/cond/pivot_t/_560"], "attr": {"T": {"type": "DT_FLOAT"}}}, {"name": "progan/Run/progan/cond/then/_0/cond/then/_169/cond/else/_333/cond/then/_556/ToRGB_lod6/Reshape/shape", "op": "Const", "input": ["^progan/Run/progan/cond/then/_0/cond/then/_169/cond/else/_333/cond/pivot_t/_560"], "device": "/device:CPU:0", "attr": {"value": {"tensor": {"dtype": "DT_INT32", "tensorShape": {"dim": [{"size": "4"}]}}}, "dtype": {"type": "DT_INT32"}}}, {"name": "Func/progan/Run/progan/cond/then/_0/cond/then/_169/cond/else/_333/cond/then/_556/input/_659", "op": "Identity", "input": ["progan/Run/progan/cond/then/_0/cond/then/_169/cond/else/_333/cond/Func/progan/Run/progan/cond/then/_0/cond/then/_169/cond/else/_333/input/_450/_567:1", "^progan/Run/progan/cond/then/_0/cond/then/_169/cond/else/_333/cond/pivot_t/_560"], "attr": {"T": {"type": "DT_FLOAT"}}}, {"name": "progan/Run/progan/cond/then/_0/cond/then/_169/cond/else/_333/cond/then/_556/sub/y", "op": "Const", "input": ["^progan/Run/progan/cond/then/_0/cond/then/_169/cond/else/_333/cond/pivot_t/_560"], "device": "/device:CPU:0", "attr": {"value": {"tensor": {"dtype": "DT_FLOAT", "tensorShape": {}}}, "dtype": {"type": "DT_FLOAT"}}}, {"name": "progan/Run/progan/cond/then/_0/cond/then/_169/cond/else/_333/cond/then/_556/Upscale2D_1/Reshape/shape", "op": "Const", "input": ["^progan/Run/progan/cond/then/_0/cond/then/_169/cond/else/_333/cond/pivot_t/_560"], "device": "/device:CPU:0", "attr": {"value": {"tensor": {"dtype": "DT_INT32", "tensorShape": {"dim": [{"size": "6"}]}}}, "dtype": {"type": "DT_INT32"}}}, {"name": "progan/Run/progan/cond/then/_0/cond/then/_169/cond/else/_333/cond/then/_556/Upscale2D_1/Tile/multiples", "op": "Const", "input": ["^progan/Run/progan/cond/then/_0/cond/then/_169/cond/else/_333/cond/pivot_t/_560"], "device": "/device:CPU:0", "attr": {"value": {"tensor": {"dtype": "DT_INT32", "tensorShape": {"dim": [{"size": "6"}]}}}, "dtype": {"type": "DT_INT32"}}}, {"name": "progan/Run/progan/cond/then/_0/cond/then/_169/cond/else/_333/cond/then/_556/Upscale2D_1/Reshape_1/shape", "op": "Const", "input": ["^progan/Run/progan/cond/then/_0/cond/then/_169/cond/else/_333/cond/pivot_t/_560"], "device": "/device:CPU:0", "attr": {"value": {"tensor": {"dtype": "DT_INT32", "tensorShape": {"dim": [{"size": "4"}]}}}, "dtype": {"type": "DT_INT32"}}}, {"name": "progan/Run/progan/cond/then/_0/cond/then/_169/cond/then/_332/32x32/Conv0/Conv2D", "op": "Conv2D", "input": ["progan/Run/progan/cond/then/_0/cond/then/_169/cond/then/_332/32x32/Conv0/transpose", "progan/Run/progan/cond/then/_0/cond/then/_169/cond/then/_332/32x32/Conv0/mul"], "device": "/device:CPU:0", "attr": {"dilations": {"list": {"i": ["1", "1", "1", "1"]}}, "T": {"type": "DT_FLOAT"}, "strides": {"list": {"i": ["1", "1", "1", "1"]}}, "data_format": {"s": "TkhXQw=="}, "use_cudnn_on_gpu": {"b": true}, "explicit_paddings": {"list": {}}, "padding": {"s": "U0FNRQ=="}}}, {"name": "progan/Run/progan/cond/then/_0/cond/then/_169/cond/else/_333/cond/else/_557/ToRGB_lod6/transpose", "op": "Transpose", "input": ["progan/Run/progan/cond/then/_0/cond/then/_169/cond/else/_333/cond/Func/progan/Run/progan/cond/then/_0/cond/then/_169/cond/else/_333/input/_445/_562", "progan/Run/progan/cond/then/_0/cond/then/_169/cond/else/_333/cond/else/_557/ToRGB_lod6/transpose/perm"], "device": "/device:CPU:0", "attr": {"Tperm": {"type": "DT_INT32"}, "T": {"type": "DT_FLOAT"}}}, {"name": "progan/Run/progan/cond/then/_0/cond/then/_169/cond/else/_333/cond/else/_557/ToRGB_lod6/mul", "op": "Mul", "input": ["Func/progan/Run/progan/cond/then/_0/cond/then/_169/cond/else/_333/cond/else/_557/input/_663", "progan/Run/progan/cond/then/_0/cond/then/_169/cond/else/_333/cond/else/_557/ToRGB_lod6/wscale"], "device": "/device:CPU:0", "attr": {"T": {"type": "DT_FLOAT"}}}, {"name": "progan/Run/progan/cond/then/_0/cond/then/_169/cond/else/_333/cond/else/_557/ToRGB_lod6/Reshape", "op": "Reshape", "input": ["Func/progan/Run/progan/cond/then/_0/cond/then/_169/cond/else/_333/cond/else/_557/input/_665", "progan/Run/progan/cond/then/_0/cond/then/_169/cond/else/_333/cond/else/_557/ToRGB_lod6/Reshape/shape"], "device": "/device:CPU:0", "attr": {"T": {"type": "DT_FLOAT"}, "Tshape": {"type": "DT_INT32"}}}, {"name": "progan/Run/progan/cond/then/_0/cond/then/_169/cond/else/_333/cond/then/_556/ToRGB_lod7/transpose", "op": "Transpose", "input": ["progan/Run/progan/cond/then/_0/cond/then/_169/cond/else/_333/cond/Func/progan/Run/progan/cond/then/_0/cond/then/_169/cond/else/_333/input/_487/_565:1", "progan/Run/progan/cond/then/_0/cond/then/_169/cond/else/_333/cond/then/_556/ToRGB_lod7/transpose/perm"], "device": "/device:CPU:0", "attr": {"Tperm": {"type": "DT_INT32"}, "T": {"type": "DT_FLOAT"}}}, {"name": "progan/Run/progan/cond/then/_0/cond/then/_169/cond/else/_333/cond/then/_556/ToRGB_lod7/mul", "op": "Mul", "input": ["Func/progan/Run/progan/cond/then/_0/cond/then/_169/cond/else/_333/cond/then/_556/input/_656", "progan/Run/progan/cond/then/_0/cond/then/_169/cond/else/_333/cond/then/_556/ToRGB_lod7/wscale"], "device": "/device:CPU:0", "attr": {"T": {"type": "DT_FLOAT"}}}, {"name": "progan/Run/progan/cond/then/_0/cond/then/_169/cond/else/_333/cond/then/_556/ToRGB_lod7/Reshape", "op": "Reshape", "input": ["Func/progan/Run/progan/cond/then/_0/cond/then/_169/cond/else/_333/cond/then/_556/input/_658", "progan/Run/progan/cond/then/_0/cond/then/_169/cond/else/_333/cond/then/_556/ToRGB_lod7/Reshape/shape"], "device": "/device:CPU:0", "attr": {"T": {"type": "DT_FLOAT"}, "Tshape": {"type": "DT_INT32"}}}, {"name": "progan/Run/progan/cond/then/_0/cond/then/_169/cond/else/_333/cond/then/_556/ToRGB_lod6/transpose", "op": "Transpose", "input": ["progan/Run/progan/cond/then/_0/cond/then/_169/cond/else/_333/cond/Func/progan/Run/progan/cond/then/_0/cond/then/_169/cond/else/_333/input/_445/_562:1", "progan/Run/progan/cond/then/_0/cond/then/_169/cond/else/_333/cond/then/_556/ToRGB_lod6/transpose/perm"], "device": "/device:CPU:0", "attr": {"Tperm": {"type": "DT_INT32"}, "T": {"type": "DT_FLOAT"}}}, {"name": "progan/Run/progan/cond/then/_0/cond/then/_169/cond/else/_333/cond/then/_556/ToRGB_lod6/mul", "op": "Mul", "input": ["Func/progan/Run/progan/cond/then/_0/cond/then/_169/cond/else/_333/cond/then/_556/input/_653", "progan/Run/progan/cond/then/_0/cond/then/_169/cond/else/_333/cond/then/_556/ToRGB_lod6/wscale"], "device": "/device:CPU:0", "attr": {"T": {"type": "DT_FLOAT"}}}, {"name": "progan/Run/progan/cond/then/_0/cond/then/_169/cond/else/_333/cond/then/_556/ToRGB_lod6/Reshape", "op": "Reshape", "input": ["Func/progan/Run/progan/cond/then/_0/cond/then/_169/cond/else/_333/cond/then/_556/input/_655", "progan/Run/progan/cond/then/_0/cond/then/_169/cond/else/_333/cond/then/_556/ToRGB_lod6/Reshape/shape"], "device": "/device:CPU:0", "attr": {"T": {"type": "DT_FLOAT"}, "Tshape": {"type": "DT_INT32"}}}, {"name": "progan/Run/progan/cond/then/_0/cond/then/_169/cond/else/_333/cond/then/_556/sub", "op": "Sub", "input": ["Func/progan/Run/progan/cond/then/_0/cond/then/_169/cond/else/_333/cond/then/_556/input/_659", "progan/Run/progan/cond/then/_0/cond/then/_169/cond/else/_333/cond/then/_556/sub/y"], "device": "/device:CPU:0", "attr": {"T": {"type": "DT_FLOAT"}}}, {"name": "progan/Run/progan/cond/then/_0/cond/then/_169/cond/then/_332/32x32/Conv0/transpose_1", "op": "Transpose", "input": ["progan/Run/progan/cond/then/_0/cond/then/_169/cond/then/_332/32x32/Conv0/Conv2D", "progan/Run/progan/cond/then/_0/cond/then/_169/cond/then/_332/32x32/Conv0/transpose_1/perm"], "device": "/device:CPU:0", "attr": {"Tperm": {"type": "DT_INT32"}, "T": {"type": "DT_FLOAT"}}}, {"name": "progan/Run/progan/cond/then/_0/cond/then/_169/cond/else/_333/cond/else/_557/ToRGB_lod6/Conv2D", "op": "Conv2D", "input": ["progan/Run/progan/cond/then/_0/cond/then/_169/cond/else/_333/cond/else/_557/ToRGB_lod6/transpose", "progan/Run/progan/cond/then/_0/cond/then/_169/cond/else/_333/cond/else/_557/ToRGB_lod6/mul"], "device": "/device:CPU:0", "attr": {"dilations": {"list": {"i": ["1", "1", "1", "1"]}}, "T": {"type": "DT_FLOAT"}, "strides": {"list": {"i": ["1", "1", "1", "1"]}}, "data_format": {"s": "TkhXQw=="}, "use_cudnn_on_gpu": {"b": true}, "explicit_paddings": {"list": {}}, "padding": {"s": "U0FNRQ=="}}}, {"name": "progan/Run/progan/cond/then/_0/cond/then/_169/cond/else/_333/cond/then/_556/ToRGB_lod7/Conv2D", "op": "Conv2D", "input": ["progan/Run/progan/cond/then/_0/cond/then/_169/cond/else/_333/cond/then/_556/ToRGB_lod7/transpose", "progan/Run/progan/cond/then/_0/cond/then/_169/cond/else/_333/cond/then/_556/ToRGB_lod7/mul"], "device": "/device:CPU:0", "attr": {"dilations": {"list": {"i": ["1", "1", "1", "1"]}}, "T": {"type": "DT_FLOAT"}, "strides": {"list": {"i": ["1", "1", "1", "1"]}}, "data_format": {"s": "TkhXQw=="}, "use_cudnn_on_gpu": {"b": true}, "explicit_paddings": {"list": {}}, "padding": {"s": "U0FNRQ=="}}}, {"name": "progan/Run/progan/cond/then/_0/cond/then/_169/cond/else/_333/cond/then/_556/ToRGB_lod6/Conv2D", "op": "Conv2D", "input": ["progan/Run/progan/cond/then/_0/cond/then/_169/cond/else/_333/cond/then/_556/ToRGB_lod6/transpose", "progan/Run/progan/cond/then/_0/cond/then/_169/cond/else/_333/cond/then/_556/ToRGB_lod6/mul"], "device": "/device:CPU:0", "attr": {"dilations": {"list": {"i": ["1", "1", "1", "1"]}}, "T": {"type": "DT_FLOAT"}, "strides": {"list": {"i": ["1", "1", "1", "1"]}}, "data_format": {"s": "TkhXQw=="}, "use_cudnn_on_gpu": {"b": true}, "explicit_paddings": {"list": {}}, "padding": {"s": "U0FNRQ=="}}}, {"name": "progan/Run/progan/cond/then/_0/cond/then/_169/cond/then/_332/32x32/Conv0/add", "op": "AddV2", "input": ["progan/Run/progan/cond/then/_0/cond/then/_169/cond/then/_332/32x32/Conv0/transpose_1", "progan/Run/progan/cond/then/_0/cond/then/_169/cond/then/_332/32x32/Conv0/Reshape"], "device": "/device:CPU:0", "attr": {"T": {"type": "DT_FLOAT"}}}, {"name": "progan/Run/progan/cond/then/_0/cond/then/_169/cond/else/_333/cond/else/_557/ToRGB_lod6/transpose_1", "op": "Transpose", "input": ["progan/Run/progan/cond/then/_0/cond/then/_169/cond/else/_333/cond/else/_557/ToRGB_lod6/Conv2D", "progan/Run/progan/cond/then/_0/cond/then/_169/cond/else/_333/cond/else/_557/ToRGB_lod6/transpose_1/perm"], "device": "/device:CPU:0", "attr": {"Tperm": {"type": "DT_INT32"}, "T": {"type": "DT_FLOAT"}}}, {"name": "progan/Run/progan/cond/then/_0/cond/then/_169/cond/else/_333/cond/then/_556/ToRGB_lod7/transpose_1", "op": "Transpose", "input": ["progan/Run/progan/cond/then/_0/cond/then/_169/cond/else/_333/cond/then/_556/ToRGB_lod7/Conv2D", "progan/Run/progan/cond/then/_0/cond/then/_169/cond/else/_333/cond/then/_556/ToRGB_lod7/transpose_1/perm"], "device": "/device:CPU:0", "attr": {"Tperm": {"type": "DT_INT32"}, "T": {"type": "DT_FLOAT"}}}, {"name": "progan/Run/progan/cond/then/_0/cond/then/_169/cond/else/_333/cond/then/_556/ToRGB_lod6/transpose_1", "op": "Transpose", "input": ["progan/Run/progan/cond/then/_0/cond/then/_169/cond/else/_333/cond/then/_556/ToRGB_lod6/Conv2D", "progan/Run/progan/cond/then/_0/cond/then/_169/cond/else/_333/cond/then/_556/ToRGB_lod6/transpose_1/perm"], "device": "/device:CPU:0", "attr": {"Tperm": {"type": "DT_INT32"}, "T": {"type": "DT_FLOAT"}}}, {"name": "progan/Run/progan/cond/then/_0/cond/then/_169/cond/then/_332/32x32/Conv0/LeakyRelu/mul", "op": "Mul", "input": ["progan/Run/progan/cond/then/_0/cond/then/_169/cond/then/_332/32x32/Conv0/add", "progan/Run/progan/cond/then/_0/cond/then/_169/cond/then/_332/32x32/Conv0/LeakyRelu/alpha"], "device": "/device:CPU:0", "attr": {"T": {"type": "DT_FLOAT"}}}, {"name": "progan/Run/progan/cond/then/_0/cond/then/_169/cond/else/_333/cond/else/_557/ToRGB_lod6/add", "op": "AddV2", "input": ["progan/Run/progan/cond/then/_0/cond/then/_169/cond/else/_333/cond/else/_557/ToRGB_lod6/transpose_1", "progan/Run/progan/cond/then/_0/cond/then/_169/cond/else/_333/cond/else/_557/ToRGB_lod6/Reshape"], "device": "/device:CPU:0", "attr": {"T": {"type": "DT_FLOAT"}}}, {"name": "progan/Run/progan/cond/then/_0/cond/then/_169/cond/else/_333/cond/then/_556/ToRGB_lod7/add", "op": "AddV2", "input": ["progan/Run/progan/cond/then/_0/cond/then/_169/cond/else/_333/cond/then/_556/ToRGB_lod7/transpose_1", "progan/Run/…
/then/_169/cond/then/_332/32x32/Conv0/PixelNorm/Mean/reduction_indices", "shape": [], "dtype": "int32"}, {"name": "progan/Run/progan/cond/then/_0/cond/then/_169/cond/then/_332/32x32/Conv0/PixelNorm/add/y", "shape": [], "dtype": "float32"}, {"name": "progan/Run/progan/cond/then/_0/cond/then/_169/cond/then/_332/32x32/Conv1/transpose/perm", "shape": [4], "dtype": "int32"}, {"name": "progan/Run/progan/cond/then/_0/cond/then/_169/cond/then/_332/32x32/Conv1/mul", "shape": [3, 3, 512, 512], "dtype": "float32"}, {"name": "progan/Run/progan/cond/then/_0/cond/then/_169/cond/then/_332/32x32/Conv1/transpose_1/perm", "shape": [4], "dtype": "int32"}, {"name": "progan/Run/progan/cond/then/_0/cond/then/_169/cond/then/_332/32x32/Conv1/Reshape", "shape": [1, 512, 1, 1], "dtype": "float32"}, {"name": "progan/Run/progan/cond/then/_0/cond/then/_169/cond/then/_332/32x32/Conv1/PixelNorm/Mean/reduction_indices", "shape": [], "dtype": "int32"}, {"name": "progan/Run/progan/cond/then/_0/cond/then/_169/cond/then/_332/32x32/Conv1/PixelNorm/add/y", "shape": [], "dtype": "float32"}, {"name": "progan/Run/progan/cond/then/_0/cond/then/_169/cond/else/_333/cond/else/_557/ToRGB_lod6/transpose/perm", "shape": [4], "dtype": "int32"}, {"name": "progan/Run/progan/cond/then/_0/cond/then/_169/cond/else/_333/cond/else/_557/ToRGB_lod6/wscale", "shape": [], "dtype": "float32"}, {"name": "progan/Run/progan/cond/then/_0/cond/then/_169/cond/else/_333/cond/else/_557/ToRGB_lod6/transpose_1/perm", "shape": [4], "dtype": "int32"}, {"name": "progan/Run/progan/cond/then/_0/cond/then/_169/cond/else/_333/cond/else/_557/ToRGB_lod6/Reshape/shape", "shape": [4], "dtype": "int32"}, {"name": "progan/Run/progan/cond/then/_0/cond/then/_169/cond/else/_333/cond/else/_557/Upscale2D/Reshape/shape", "shape": [6], "dtype": "int32"}, {"name": "progan/Run/progan/cond/then/_0/cond/then/_169/cond/else/_333/cond/else/_557/Upscale2D/Tile/multiples", "shape": [6], "dtype": "int32"}, {"name": "progan/Run/progan/cond/then/_0/cond/then/_169/cond/else/_333/cond/else/_557/Upscale2D/Reshape_1/shape", "shape": [4], "dtype": "int32"}, {"name": "progan/Run/progan/cond/then/_0/cond/then/_169/cond/else/_333/cond/then/_556/ToRGB_lod7/transpose/perm", "shape": [4], "dtype": "int32"}, {"name": "progan/Run/progan/cond/then/_0/cond/then/_169/cond/else/_333/cond/then/_556/ToRGB_lod7/wscale", "shape": [], "dtype": "float32"}, {"name": "progan/Run/progan/cond/then/_0/cond/then/_169/cond/else/_333/cond/then/_556/ToRGB_lod7/transpose_1/perm", "shape": [4], "dtype": "int32"}, {"name": "progan/Run/progan/cond/then/_0/cond/then/_169/cond/else/_333/cond/then/_556/ToRGB_lod7/Reshape/shape", "shape": [4], "dtype": "int32"}, {"name": "progan/Run/progan/cond/then/_0/cond/then/_169/cond/else/_333/cond/then/_556/Upscale2D/Reshape/shape", "shape": [6], "dtype": "int32"}, {"name": "progan/Run/progan/cond/then/_0/cond/then/_169/cond/else/_333/cond/then/_556/Upscale2D/Tile/multiples", "shape": [6], "dtype": "int32"}, {"name": "progan/Run/progan/cond/then/_0/cond/then/_169/cond/else/_333/cond/then/_556/Upscale2D/Reshape_1/shape", "shape": [4], "dtype": "int32"}, {"name": "progan/Run/progan/cond/then/_0/cond/then/_169/cond/else/_333/cond/then/_556/ToRGB_lod6/transpose/perm", "shape": [4], "dtype": "int32"}, {"name": "progan/Run/progan/cond/then/_0/cond/then/_169/cond/else/_333/cond/then/_556/ToRGB_lod6/wscale", "shape": [], "dtype": "float32"}, {"name": "progan/Run/progan/cond/then/_0/cond/then/_169/cond/else/_333/cond/then/_556/ToRGB_lod6/transpose_1/perm", "shape": [4], "dtype": "int32"}, {"name": "progan/Run/progan/cond/then/_0/cond/then/_169/cond/else/_333/cond/then/_556/ToRGB_lod6/Reshape/shape", "shape": [4], "dtype": "int32"}, {"name": "progan/Run/progan/cond/then/_0/cond/then/_169/cond/else/_333/cond/then/_556/sub/y", "shape": [], "dtype": "float32"}, {"name": "progan/Run/progan/cond/then/_0/cond/then/_169/cond/else/_333/cond/then/_556/Upscale2D_1/Reshape/shape", "shape": [6], "dtype": "int32"}, {"name": "progan/Run/progan/cond/then/_0/cond/then/_169/cond/else/_333/cond/then/_556/Upscale2D_1/Tile/multiples", "shape": [6], "dtype": "int32"}, {"name": "progan/Run/progan/cond/then/_0/cond/then/_169/cond/else/_333/cond/then/_556/Upscale2D_1/Reshape_1/shape", "shape": [4], "dtype": "int32"}, {"name": "progan/Run/progan/cond/then/_0/cond/then/_169/cond/then/_332/cond/then/_511/Less", "shape": [], "dtype": "bool"}, {"name": "progan/Run/progan/cond/then/_0/cond/then/_169/cond/then/_332/cond/then/_511/Greater", "shape": [], "dtype": "bool"}, {"name": "Func/progan/Run/progan/cond/then/_0/cond/then/_169/cond/then/_332/cond/then/_511/input/_576", "shape": [], "dtype": "float32"}, {"name": "Func/progan/Run/progan/cond/then/_0/cond/then/_169/cond/then/_332/cond/then/_511/input/_601", "shape": [1, 1, 256, 3], "dtype": "float32"}, {"name": "Func/progan/Run/progan/cond/then/_0/cond/then/_169/cond/then/_332/cond/then/_511/input/_602", "shape": [3], "dtype": "float32"}, {"name": "Func/progan/Run/progan/cond/then/_0/cond/then/_169/cond/then/_332/cond/then/_511/input/_603", "shape": [1, 1, 512, 3], "dtype": "float32"}, {"name": "Func/progan/Run/progan/cond/then/_0/cond/then/_169/cond/then/_332/cond/then/_511/input/_604", "shape": [3], "dtype": "float32"}, {"name": "progan/Run/progan/cond/then/_0/cond/then/_169/cond/then/_332/cond/then/_511/64x64/Conv1/LeakyRelu/alpha", "shape": [], "dtype": "float32"}, {"name": "progan/Run/progan/cond/then/_0/cond/then/_169/cond/then/_332/cond/then/_511/64x64/Conv0/LeakyRelu/alpha", "shape": [], "dtype": "float32"}, {"name": "progan/Run/progan/cond/then/_0/cond/then/_169/cond/then/_332/cond/then/_511/64x64/Upscale2D/Reshape/shape", "shape": [6], "dtype": "int32"}, {"name": "progan/Run/progan/cond/then/_0/cond/then/_169/cond/then/_332/cond/then/_511/64x64/Upscale2D/Tile/multiples", "shape": [6], "dtype": "int32"}, {"name": "progan/Run/progan/cond/then/_0/cond/then/_169/cond/then/_332/cond/then/_511/64x64/Upscale2D/Reshape_1/shape", "shape": [4], "dtype": "int32"}, {"name": "progan/Run/progan/cond/then/_0/cond/then/_169/cond/then/_332/cond/then/_511/64x64/Conv0/transpose/perm", "shape": [4], "dtype": "int32"}, {"name": "progan/Run/progan/cond/then/_0/cond/then/_169/cond/then/_332/cond/then/_511/64x64/Conv0/mul", "shape": [3, 3, 512, 256], "dtype": "float32"}, {"name": "progan/Run/progan/cond/then/_0/cond/then/_169/cond/then/_332/cond/then/_511/64x64/Conv0/transpose_1/perm", "shape": [4], "dtype": "int32"}, {"name": "progan/Run/progan/cond/then/_0/cond/then/_169/cond/then/_332/cond/then/_511/64x64/Conv0/Reshape", "shape": [1, 256, 1, 1], "dtype": "float32"}, {"name": "progan/Run/progan/cond/then/_0/cond/then/_169/cond/then/_332/cond/then/_511/64x64/Conv0/PixelNorm/Mean/reduction_indices", "shape": [], "dtype": "int32"}, {"name": "progan/Run/progan/cond/then/_0/cond/then/_169/cond/then/_332/cond/then/_511/64x64/Conv0/PixelNorm/add/y", "shape": [], "dtype": "float32"}, {"name": "progan/Run/progan/cond/then/_0/cond/then/_169/cond/then/_332/cond/then/_511/64x64/Conv1/transpose/perm", "shape": [4], "dtype": "int32"}, {"name": "progan/Run/progan/cond/then/_0/cond/then/_169/cond/then/_332/cond/then/_511/64x64/Conv1/mul", "shape": [3, 3, 256, 256], "dtype": "float32"}, {"name": "progan/Run/progan/cond/then/_0/cond/then/_169/cond/then/_332/cond/then/_511/64x64/Conv1/transpose_1/perm", "shape": [4], "dtype": "int32"}, {"name": "progan/Run/progan/cond/then/_0/cond/then/_169/cond/then/_332/cond/then/_511/64x64/Conv1/Reshape", "shape": [1, 256, 1, 1], "dtype": "float32"}, {"name": "progan/Run/progan/cond/then/_0/cond/then/_169/cond/then/_332/cond/then/_511/64x64/Conv1/PixelNorm/Mean/reduction_indices", "shape": [], "dtype": "int32"}, {"name": "progan/Run/progan/cond/then/_0/cond/then/_169/cond/then/_332/cond/then/_511/64x64/Conv1/PixelNorm/add/y", "shape": [], "dtype": "float32"}, {"name": "progan/Run/progan/cond/then/_0/cond/then/_169/cond/then/_332/cond/else/_512/cond/else/_712/ToRGB_lod5/transpose/perm", "shape": [4], "dtype": "int32"}, {"name": "progan/Run/progan/cond/then/_0/cond/then/_169/cond/then/_332/cond/else/_512/cond/else/_712/ToRGB_lod5/wscale", "shape": [], "dtype": "float32"}, {"name": "progan/Run/progan/cond/then/_0/cond/then/_169/cond/then/_332/cond/else/_512/cond/else/_712/ToRGB_lod5/transpose_1/perm", "shape": [4], "dtype": "int32"}, {"name": "progan/Run/progan/cond/then/_0/cond/then/_169/cond/then/_332/cond/else/_512/cond/else/_712/ToRGB_lod5/Reshape/shape", "shape": [4], "dtype": "int32"}, {"name": "progan/Run/progan/cond/then/_0/cond/then/_169/cond/then/_332/cond/else/_512/cond/else/_712/Upscale2D/Reshape/shape", "shape": [6], "dtype": "int32"}, {"name": "progan/Run/progan/cond/then/_0/cond/then/_169/cond/then/_332/cond/else/_512/cond/else/_712/Upscale2D/Tile/multiples", "shape": [6], "dtype": "int32"}, {"name": "progan/Run/progan/cond/then/_0/cond/then/_169/cond/then/_332/cond/else/_512/cond/else/_712/Upscale2D/Reshape_1/shape", "shape": [4], "dtype": "int32"}, {"name": "progan/Run/progan/cond/then/_0/cond/then/_169/cond/then/_332/cond/else/_512/cond/then/_711/ToRGB_lod6/transpose/perm", "shape": [4], "dtype": "int32"}, {"name": "progan/Run/progan/cond/then/_0/cond/then/_169/cond/then/_332/cond/else/_512/cond/then/_711/ToRGB_lod6/wscale", "shape": [], "dtype": "float32"}, {"name": "progan/Run/progan/cond/then/_0/cond/then/_169/cond/then/_332/cond/else/_512/cond/then/_711/ToRGB_lod6/transpose_1/perm", "shape": [4], "dtype": "int32"}, {"name": "progan/Run/progan/cond/then/_0/cond/then/_169/cond/then/_332/cond/else/_512/cond/then/_711/ToRGB_lod6/Reshape/shape", "shape": [4], "dtype": "int32"}, {"name": "progan/Run/progan/cond/then/_0/cond/then/_169/cond/then/_332/cond/else/_512/cond/then/_711/Upscale2D/Reshape/shape", "shape": [6], "dtype": "int32"}, {"name": "progan/Run/progan/cond/then/_0/cond/then/_169/cond/then/_332/cond/else/_512/cond/then/_711/Upscale2D/Tile/multiples", "shape": [6], "dtype": "int32"}, {"name": "progan/Run/progan/cond/then/_0/cond/then/_169/cond/then/_332/cond/else/_512/cond/then/_711/Upscale2D/Reshape_1/shape", "shape": [4], "dtype": "int32"}, {"name": "progan/Run/progan/cond/then/_0/cond/then/_169/cond/then/_332/cond/else/_512/cond/then/_711/ToRGB_lod5/transpose/perm", "shape": [4], "dtype": "int32"}, {"name": "progan/Run/progan/cond/then/_0/cond/then/_169/cond/then/_332/cond/else/_512/cond/then/_711/ToRGB_lod5/wscale", "shape": [], "dtype": "float32"}, {"name": "progan/Run/progan/cond/then/_0/cond/then/_169/cond/then/_332/cond/else/_512/cond/then/_711/ToRGB_lod5/transpose_1/perm", "shape": [4], "dtype": "int32"}, {"name": "progan/Run/progan/cond/then/_0/cond/then/_169/cond/then/_332/cond/else/_512/cond/then/_711/ToRGB_lod5/Reshape/shape", "shape": [4], "dtype": "int32"}, {"name": "progan/Run/progan/cond/then/_0/cond/then/_169/cond/then/_332/cond/else/_512/cond/then/_711/sub/y", "shape": [], "dtype": "float32"}, {"name": "progan/Run/progan/cond/then/_0/cond/then/_169/cond/then/_332/cond/else/_512/cond/then/_711/Upscale2D_1/Reshape/shape", "shape": [6], "dtype": "int32"}, {"name": "progan/Run/progan/cond/then/_0/cond/then/_169/cond/then/_332/cond/else/_512/cond/then/_711/Upscale2D_1/Tile/multiples", "shape": [6], "dtype": "int32"}, {"name": "progan/Run/progan/cond/then/_0/cond/then/_169/cond/then/_332/cond/else/_512/cond/then/_711/Upscale2D_1/Reshape_1/shape", "shape": [4], "dtype": "int32"}, {"name": "progan/Run/progan/cond/then/_0/cond/then/_169/cond/then/_332/cond/then/_511/cond/then/_672/Less", "shape": [], "dtype": "bool"}, {"name": "progan/Run/progan/cond/then/_0/cond/then/_169/cond/then/_332/cond/then/_511/cond/then/_672/Greater", "shape": [], "dtype": "bool"}, {"name": "Func/progan/Run/progan/cond/then/_0/cond/then/_169/cond/then/_332/cond/then/_511/cond/then/_672/input/_731", "shape": [], "dtype": "float32"}, {"name": "Func/progan/Run/progan/cond/then/_0/cond/then/_169/cond/then/_332/cond/then/_511/cond/then/_672/input/_750", "shape": [1, 1, 128, 3], "dtype": "float32"}, {"name": "Func/progan/Run/progan/cond/then/_0/cond/then/_169/cond/then/_332/cond/then/_511/cond/then/_672/input/_751", "shape": [3], "dtype": "float32"}, {"name": "Func/progan/Run/progan/cond/then/_0/cond/then/_169/cond/then/_332/cond/then/_511/cond/then/_672/input/_752", "shape": [1, 1, 256, 3], "dtype": "float32"}, {"name": "Func/progan/Run/progan/cond/then/_0/cond/then/_169/cond/then/_332/cond/then/_511/cond/then/_672/input/_753", "shape": [3], "dtype": "float32"}, {"name": "progan/Run/progan/cond/then/_0/cond/then/_169/cond/then/_332/cond/then/_511/cond/then/_672/128x128/Conv1/LeakyRelu/alpha", "shape": [], "dtype": "float32"}, {"name": "progan/Run/progan/cond/then/_0/cond/then/_169/cond/then/_332/cond/then/_511/cond/then/_672/128x128/Conv0/LeakyRelu/alpha", "shape": [], "dtype": "float32"}, {"name": "progan/Run/progan/cond/then/_0/cond/then/_169/cond/then/_332/cond/then/_511/cond/then/_672/128x128/Upscale2D/Reshape/shape", "shape": [6], "dtype": "int32"}, {"name": "progan/Run/progan/cond/then/_0/cond/then/_169/cond/then/_332/cond/then/_511/cond/then/_672/128x128/Upscale2D/Tile/multiples", "shape": [6], "dtype": "int32"}, {"name": "progan/Run/progan/cond/then/_0/cond/then/_169/cond/then/_332/cond/then/_511/cond/then/_672/128x128/Upscale2D/Reshape_1/shape", "shape": [4], "dtype": "int32"}, {"name": "progan/Run/progan/cond/then/_0/cond/then/_169/cond/then/_332/cond/then/_511/cond/then/_672/128x128/Conv0/transpose/perm", "shape": [4], "dtype": "int32"}, {"name": "progan/Run/progan/cond/then/_0/cond/then/_169/cond/then/_332/cond/then/_511/cond/then/_672/128x128/Conv0/mul", "shape": [3, 3, 256, 128], "dtype": "float32"}, {"name": "progan/Run/progan/cond/then/_0/cond/then/_169/cond/then/_332/cond/then/_511/cond/then/_672/128x128/Conv0/transpose_1/perm", "shape": [4], "dtype": "int32"}, {"name": "progan/Run/progan/cond/then/_0/cond/then/_169/cond/then/_332/cond/then/_511/cond/then/_672/128x128/Conv0/Reshape", "shape": [1, 128, 1, 1], "dtype": "float32"}, {"name": "progan/Run/progan/cond/then/_0/cond/then/_169/cond/then/_332/cond/then/_511/cond/then/_672/128x128/Conv0/PixelNorm/Mean/reduction_indices", "shape": [], "dtype": "int32"}, {"name": "progan/Run/progan/cond/then/_0/cond/then/_169/cond/then/_332/cond/then/_511/cond/then/_672/128x128/Conv0/PixelNorm/add/y", "shape": [], "dtype": "float32"}, {"name": "progan/Run/progan/cond/then/_0/cond/then/_169/cond/then/_332/cond/then/_511/cond/then/_672/128x128/Conv1/transpose/perm", "shape": [4], "dtype": "int32"}, {"name": "progan/Run/progan/cond/then/_0/cond/then/_169/cond/then/_332/cond/then/_511/cond/then/_672/128x128/Conv1/mul", "shape": [3, 3, 128, 128], "dtype": "float32"}, {"name": "progan/Run/progan/cond/then/_0/cond/then/_169/cond/then/_332/cond/then/_511/cond/then/_672/128x128/Conv1/transpose_1/perm", "shape": [4], "dtype": "int32"}, {"name": "progan/Run/progan/cond/then/_0/cond/then/_169/cond/then/_332/cond/then/_511/cond/then/_672/128x128/Conv1/Reshape", "shape": [1, 128, 1, 1], "dtype": "float32"}, {"name": "progan/Run/progan/cond/then/_0/cond/then/_169/cond/then/_332/cond/then/_511/cond/then/_672/128x128/Conv1/PixelNorm/Mean/reduction_indices", "shape": [], "dtype": "int32"}, {"name": "progan/Run/progan/cond/then/_0/cond/then/_169/cond/then/_332/cond/then/_511/cond/then/_672/128x128/Conv1/PixelNorm/add/y", "shape": [], "dtype": "float32"}, {"name": "progan/Run/progan/cond/then/_0/cond/then/_169/cond/then/_332/cond/then/_511/cond/else/_673/cond/else/_849/ToRGB_lod4/transpose/perm", "shape": [4], "dtype": "int32"}, {"name": "progan/Run/progan/cond/then/_0/cond/then/_169/cond/then/_332/cond/then/_511/cond/else/_673/cond/else/_849/ToRGB_lod4/wscale", "shape": [], "dtype": "float32"}, {"name": "progan/Run/progan/cond/then/_0/cond/then/_169/cond/then/_332/cond/then/_511/cond/else/_673/cond/else/_849/ToRGB_lod4/transpose_1/perm", "shape": [4], "dtype": "int32"}, {"name": "progan/Run/progan/cond/then/_0/cond/then/_169/cond/then/_332/cond/then/_511/cond/else/_673/cond/else/_849/ToRGB_lod4/Reshape/shape", "shape": [4], "dtype": "int32"}, {"name": "progan/Run/progan/cond/then/_0/cond/then/_169/cond/then/_332/cond/then/_511/cond/else/_673/cond/else/_849/Upscale2D/Reshape/shape", "shape": [6], "dtype": "int32"}, {"name": "progan/Run/progan/cond/then/_0/cond/then/_169/cond/then/_332/cond/then/_511/cond/else/_673/cond/else/_849/Upscale2D/Tile/multiples", "shape": [6], "dtype": "int32"}, {"name": "progan/Run/progan/cond/then/_0/cond/then/_169/cond/then/_332/cond/then/_511/cond/else/_673/cond/else/_849/Upscale2D/Reshape_1/shape", "shape": [4], "dtype": "int32"}, {"name": "progan/Run/progan/cond/then/_0/cond/then/_169/cond/then/_332/cond/then/_511/cond/else/_673/cond/then/_848/ToRGB_lod5/transpose/perm", "shape": [4], "dtype": "int32"}, {"name": "progan/Run/progan/cond/then/_0/cond/then/_169/cond/then/_332/cond/then/_511/cond/else/_673/cond/then/_848/ToRGB_lod5/wscale", "shape": [], "dtype": "float32"}, {"name": "progan/Run/progan/cond/then/_0/cond/then/_169/cond/then/_332/cond/then/_511/cond/else/_673/cond/then/_848/ToRGB_lod5/transpose_1/perm", "shape": [4], "dtype": "int32"}, {"name": "progan/Run/progan/cond/then/_0/cond/then/_169/cond/then/_332/cond/then/_511/cond/else/_673/cond/then/_848/ToRGB_lod5/Reshape/shape", "shape": [4], "dtype": "int32"}, {"name": "progan/Run/progan/cond/then/_0/cond/then/_169/cond/then/_332/cond/then/_511/cond/else/_673/cond/then/_848/Upscale2D/Reshape/shape", "shape": [6], "dtype": "int32"}, {"name": "progan/Run/progan/cond/then/_0/cond/then/_169/cond/then/_332/cond/then/_511/cond/else/_673/cond/then/_848/Upscale2D/Tile/multiples", "shape": [6], "dtype": "int32"}, {"name": "progan/Run/progan/cond/then/_0/cond/then/_169/cond/then/_332/cond/then/_511/cond/else/_673/cond/then/_848/Upscale2D/Reshape_1/shape", "shape": [4], "dtype": "int32"}, {"name": "progan/Run/progan/cond/then/_0/cond/then/_169/cond/then/_332/cond/then/_511/cond/else/_673/cond/then/_848/ToRGB_lod4/transpose/perm", "shape": [4], "dtype": "int32"}, {"name": "progan/Run/progan/cond/then/_0/cond/then/_169/cond/then/_332/cond/then/_511/cond/else/_673/cond/then/_848/ToRGB_lod4/wscale", "shape": [], "dtype": "float32"}, {"name": "progan/Run/progan/cond/then/_0/cond/then/_169/cond/then/_332/cond/then/_511/cond/else/_673/cond/then/_848/ToRGB_lod4/transpose_1/perm", "shape": [4], "dtype": "int32"}, {"name": "progan/Run/progan/cond/then/_0/cond/then/_169/cond/then/_332/cond/then/_511/cond/else/_673/cond/then/_848/ToRGB_lod4/Reshape/shape", "shape": [4], "dtype": "int32"}, {"name": "progan/Run/progan/cond/then/_0/cond/then/_169/cond/then/_332/cond/then/_511/cond/else/_673/cond/then/_848/sub/y", "shape": [], "dtype": "float32"}, {"name": "progan/Run/progan/cond/then/_0/cond/then/_169/cond/then/_332/cond/then/_511/cond/else/_673/cond/then/_848/Upscale2D_1/Reshape/shape", "shape": [6], "dtype": "int32"}, {"name": "progan/Run/progan/cond/then/_0/cond/then/_169/cond/then/_332/cond/then/_511/cond/else/_673/cond/then/_848/Upscale2D_1/Tile/multiples", "shape": [6], "dtype": "int32"}, {"name": "progan/Run/progan/cond/then/_0/cond/then/_169/cond/then/_332/cond/then/_511/cond/else/_673/cond/then/_848/Upscale2D_1/Reshape_1/shape", "shape": [4], "dtype": "int32"}, {"name": "progan/Run/progan/cond/then/_0/cond/then/_169/cond/then/_332/cond/then/_511/cond/then/_672/cond/then/_815/Less", "shape": [], "dtype": "bool"}, {"name": "progan/Run/progan/cond/then/_0/cond/then/_169/cond/then/_332/cond/then/_511/cond/then/_672/cond/then/_815/Greater", "shape": [], "dtype": "bool"}, {"name": "Func/progan/Run/progan/cond/then/_0/cond/then/_169/cond/then/_332/cond/then/_511/cond/then/_672/cond/then/_815/input/_868", "shape": [], "dtype": "float32"}, {"name": "Func/progan/Run/progan/cond/then/_0/cond/then/_169/cond/then/_332/cond/then/_511/cond/then/_672/cond/then/_815/input/_881", "shape": [1, 1, 64, 3], "dtype": "float32"}, {"name": "Func/progan/Run/progan/cond/then/_0/cond/then/_169/cond/then/_332/cond/then/_511/cond/then/_672/cond/then/_815/input/_882", "shape": [3], "dtype": "float32"}, {"name": "Func/progan/Run/progan/cond/then/_0/cond/then/_169/cond/then/_332/cond/then/_511/cond/then/_672/cond/then/_815/input/_883", "shape": [1, 1, 128, 3], "dtype": "float32"}, {"name": "Func/progan/Run/progan/cond/then/_0/cond/then/_169/cond/then/_332/cond/then/_511/cond/then/_672/cond/then/_815/input/_884", "shape": [3], "dtype": "float32"}, {"name": "progan/Run/progan/cond/then/_0/cond/then/_169/cond/then/_332/cond/then/_511/cond/then/_672/cond/then/_815/256x256/Conv1/LeakyRelu/alpha", "shape": [], "dtype": "float32"}, {"name": "progan/Run/progan/cond/then/_0/cond/then/_169/cond/then/_332/cond/then/_511/cond/then/_672/cond/then/_815/256x256/Conv0/LeakyRelu/alpha", "shape": [], "dtype": "float32"}, {"name": "progan/Run/progan/cond/then/_0/cond/then/_169/cond/then/_332/cond/then/_511/cond/then/_672/cond/then/_815/256x256/Upscale2D/Reshape/shape", "shape": [6], "dtype": "int32"}, {"name": "progan/Run/progan/cond/then/_0/cond/then/_169/cond/then/_332/cond/then/_511/cond/then/_672/cond/then/_815/256x256/Upscale2D/Tile/multiples", "shape": [6], "dtype": "int32"}, {"name": "progan/Run/progan/cond/then/_0/cond/then/_169/cond/then/_332/cond/then/_511/cond/then/_672/cond/then/_815/256x256/Upscale2D/Reshape_1/shape", "shape": [4], "dtype": "int32"}, {"name": "progan/Run/progan/cond/then/_0/cond/then/_169/cond/then/_332/cond/then/_511/cond/then/_672/cond/then/_815/256x256/Conv0/transpose/perm", "shape": [4], "dtype": "int32"}, {"name": "progan/Run/progan/cond/then/_0/cond/then/_169/cond/then/_332/cond/then/_511/cond/then/_672/cond/then/_815/256x256/Conv0/mul", "shape": [3, 3, 128, 64], "dtype": "float32"}, {"name": "progan/Run/progan/cond/then/_0/cond/then/_169/cond/then/_332/cond/then/_511/cond/then/_672/cond/then/_815/256x256/Conv0/transpose_1/perm", "shape": [4], "dtype": "int32"}, {"name": "progan/Run/progan/cond/then/_0/cond/then/_169/cond/then/_332/cond/then/_511/cond/then/_672/cond/then/_815/256x256/Conv0/Reshape", "shape": [1, 64, 1, 1], "dtype": "float32"}, {"name": "progan/Run/progan/cond/then/_0/cond/then/_169/cond/then/_332/cond/then/_511/cond/then/_672/cond/then/_815/256x256/Conv0/PixelNorm/Mean/reduction_indices", "shape": [], "dtype": "int32"}, {"name": "progan/Run/progan/cond/then/_0/cond/then/_169/cond/then/_332/cond/then/_511/cond/then/_672/cond/then/_815/256x256/Conv0/PixelNorm/add/y", "shape": [], "dtype": "float32"}, {"name": "progan/Run/progan/cond/then/_0/cond/then/_169/cond/then/_332/cond/then/_511/cond/then/_672/cond/then/_815/256x256/Conv1/transpose/perm", "shape": [4], "dtype": "int32"}, {"name": "progan/Run/progan/cond/then/_0/cond/then/_169/cond/then/_332/cond/then/_511/cond/then/_672/cond/then/_815/256x256/Conv1/mul", "shape": [3, 3, 64, 64], "dtype": "float32"}, {"name": "progan/Run/progan/cond/then/_0/cond/then/_169/cond/then/_332/cond/then/_511/cond/then/_672/cond/then/_815/256x256/Conv1/transpose_1/perm", "shape": [4], "dtype": "int32"}, {"name": "progan/Run/progan/cond/then/_0/cond/then/_169/cond/then/_332/cond/then/_511/cond/then/_672/cond/then/_815/256x256/Conv1/Reshape", "shape": [1, 64, 1, 1], "dtype": "float32"}, {"name": "progan/Run/progan/cond/then/_0/cond/then/_169/cond/then/_332/cond/then/_511/cond/then/_672/cond/then/_815/256x256/Conv1/PixelNorm/Mean/reduction_indices", "shape": [], "dtype": "int32"}, {"name": "progan/Run/progan/cond/then/_0/cond/then/_169/cond/then/_332/cond/then/_511/cond/then/_672/cond/then/_815/256x256/Conv1/PixelNorm/add/y", "shape": [], "dtype": "float32"}, {"name": "progan/Run/progan/cond/then/_0/cond/then/_169/cond/then/_332/cond/then/_511/cond/then/_672/cond/else/_816/cond/else/_968/ToRGB_lod3/transpose/perm", "shape": [4], "dtype": "int32"}, {"name": "progan/Run/progan/cond/then/_0/cond/then/_169/cond/then/_332/cond/then/_511/cond/then/_672/cond/else/_816/cond/else/_968/ToRGB_lod3/wscale", "shape": [], "dtype": "float32"}, {"name": "progan/Run/progan/cond/then/_0/cond/then/_169/cond/then/_332/cond/then/_511/cond/then/_672/cond/else/_816/cond/else/_968/ToRGB_lod3/transpose_1/perm", "shape": [4], "dtype": "int32"}, {"name": "progan/Run/progan/cond/then/_0/cond/then/_169/cond/then/_332/cond/then/_511/cond/then/_672/cond/else/_816/cond/else/_968/ToRGB_lod3/Reshape/shape", "shape": [4], "dtype": "int32"}, {"name": "progan/Run/progan/cond/then/_0/cond/then/_169/cond/then/_332/cond/then/_511/cond/then/_672/cond/else/_816/cond/else/_968/Upscale2D/Reshape/shape", "shape": [6], "dtype": "int32"}, {"name": "progan/Run/progan/cond/then/_0/cond/then/_169/cond/then/_332/cond/then/_511/cond/then/_672/cond/else/_816/cond/else/_968/Upscale2D/Tile/multiples", "shape": [6], "dtype": "int32"}, {"name": "progan/Run/progan/cond/then/_0/cond/then/_169/cond/then/_332/cond/then/_511/cond/then/_672/cond/else/_816/cond/else/_968/Upscale2D/Reshape_1/shape", "shape": [4], "dtype": "int32"}, {"name": "progan/Run/progan/cond/then/_0/cond/then/_169/cond/then/_332/cond/then/_511/cond/then/_672/cond/else/_816/cond/then/_967/ToRGB_lod4/transpose/perm", "shape": [4], "dtype": "int32"}, {"name": "progan/Run/progan/cond/then/_0/cond/then/_169/cond/then/_332/cond/then/_511/cond/then/_672/cond/else/_816/cond/then/_967/ToRGB_lod4/wscale", "shape": [], "dtype": "float32"}, {"name": "progan/Run/progan/cond/then/_0/cond/then/_169/cond/then/_332/cond/then/_511/cond/then/_672/cond/else/_816/cond/then/_967/ToRGB_lod4/transpose_1/perm", "shape": [4], "dtype": "int32"}, {"name": "progan/Run/progan/cond/then/_0/cond/then/_169/cond/then/_332/cond/then/_511/cond/then/_672/cond/else/_816/cond/then/_967/ToRGB_lod4/Reshape/shape", "shape": [4], "dtype": "int32"}, {"name": "progan/Run/progan/cond/then/_0/cond/then/_169/cond/then/_332/cond/then/_511/cond/then/_672/cond/else/_816/cond/then/_967/Upscale2D/Reshape/shape", "shape": [6], "dtype": "int32"}, {"name": "progan/Run/progan/cond/then/_0/cond/then/_169/cond/then/_332/cond/then/_511/cond/then/_672/cond/else/_816/cond/then/_967/Upscale2D/Tile/multiples", "shape": [6], "dtype": "int32"}, {"name": "progan/Run/progan/cond/then/_0/cond/then/_169/cond/then/_332/cond/then/_511/cond/then/_672/cond/else/_816/cond/then/_967/Upscale2D/Reshape_1/shape", "shape": [4], "dtype": "int32"}, {"name": "progan/Run/progan/cond/then/_0/cond/then/_169/cond/then/_332/cond/then/_511/cond/then/_672/cond/else/_816/cond/then/_967/ToRGB_lod3/transpose/perm", "shape": [4], "dtype": "int32"}, {"name": "progan/Run/progan/cond/then/_0/cond/then/_169/cond/then/_332/cond/then/_511/cond/then/_672/cond/else/_816/cond/then/_967/ToRGB_lod3/wscale", "shape": [], "dtype": "float32"}, {"name": "progan/Run/progan/cond/then/_0/cond/then/_169/cond/then/_332/cond/then/_511/cond/then/_672/cond/else/_816/cond/then/_967/ToRGB_lod3/transpose_1/perm", "shape": [4], "dtype": "int32"}, {"name": "progan/Run/progan/cond/then/_0/cond/then/_169/cond/then/_332/cond/then/_511/cond/then/_672/cond/else/_816/cond/then/_967/ToRGB_lod3/Reshape/shape", "shape": [4], "dtype": "int32"}, {"name": "progan/Run/progan/cond/then/_0/cond/then/_169/cond/then/_332/cond/then/_511/cond/then/_672/cond/else/_816/cond/then/_967/sub/y", "shape": [], "dtype": "float32"}, {"name": "progan/Run/progan/cond/then/_0/cond/then/_169/cond/then/_332/cond/then/_511/cond/then/_672/cond/else/_816/cond/then/_967/Upscale2D_1/Reshape/shape", "shape": [6], "dtype": "int32"}, {"name": "progan/Run/progan/cond/then/_0/cond/then/_169/cond/then/_332/cond/then/_511/cond/then/_672/cond/else/_816/cond/then/_967/Upscale2D_1/Tile/multiples", "shape": [6], "dtype": "int32"}, {"name": "progan/Run/progan/cond/then/_0/cond/then/_169/cond/then/_332/cond/then/_511/cond/then/_672/cond/else/_816/cond/then/_967/Upscale2D_1/Reshape_1/shape", "shape": [4], "dtype": "int32"}, {"name": "progan/Run/progan/cond/then/_0/cond/then/_169/cond/then/_332/cond/then/_511/cond/then/_672/cond/then/_815/cond/then/_940/Less", "shape": [], "dtype": "bool"}, {"name": "progan/Run/progan/cond/then/_0/cond/then/_169/cond/then/_332/cond/then/_511/cond/then/_672/cond/then/_815/cond/then/_940/Greater", "shape": [], "dtype": "bool"}, {"name": "Func/progan/Run/progan/cond/then/_0/cond/then/_169/cond/then/_332/cond/then/_511/cond/then/_672/cond/then/_815/cond/then/_940/input/_987", "shape": [], "dtype": "float32"}, {"name": "Func/progan/Run/progan/cond/then/_0/cond/then/_169/cond/then/_332/cond/then/_511/cond/then/_672/cond/then/_815/cond/then/_940/input/_994", "shape": [1, 1, 32, 3], "dtype": "float32"}, {"name": "Func/progan/Run/progan/cond/then/_0/cond/then/_169/cond/then/_332/cond/then/_511/cond/then/_672/cond/then/_815/cond/then/_940/input/_995", "shape": [3], "dtype": "float32"}, {"name": "Func/progan/Run/progan/cond/then/_0/cond/then/_169/cond/then/_332/cond/then/_511/cond/then/_672/cond/then/_815/cond/then/_940/input/_996", "shape": [1, 1, 64, 3], "dtype": "float32"}, {"name": "Func/progan/Run/progan/cond/then/_0/cond/then/_169/cond/then/_332/cond/then/_511/cond/then/_672/cond/then/_815/cond/then/_940/input/_997", "shape": [3], "dtype": "float32"}, {"name": "progan/Run/progan/cond/then/_0/cond/then/_169/cond/then/_332/cond/then/_511/cond/then/_672/cond/then/_815/cond/then/_940/512x512/Conv1/LeakyRelu/alpha", "shape": [], "dtype": "float32"}, {"name": "progan/Run/progan/cond/then/_0/cond/then/_169/cond/then/_332/cond/then/_511/cond/then/_672/cond/then/_815/cond/then/_940/512x512/Conv0/LeakyRelu/alpha", "shape": [], "dtype": "float32"}, {"name": "progan/Run/progan/cond/then/_0/cond/then/_169/cond/then/_332/cond/then/_511/cond/then/_672/cond/then/_815/cond/then/_940/512x512/Upscale2D/Reshape/shape", "shape": [6], "dtype": "int32"}, {"name": "progan/Run/progan/cond/then/_0/cond/then/_169/cond/then/_332/cond/then/_511/cond/then/_672/cond/then/_815/cond/then/_940/512x512/Upscale2D/Tile/multiples", "shape": [6], "dtype": "int32"}, {"name": "progan/Run/progan/cond/then/_0/cond/then/_169/cond/then/_332/cond/then/_511/cond/then/_672/cond/then/_815/cond/then/_940/512x512/Upscale2D/Reshape_1/shape", "shape": [4], "dtype": "int32"}, {"name": "progan/Run/progan/cond/then/_0/cond/then/_169/cond/then/_332/cond/then/_511/cond/then/_672/cond/then/_815/cond/then/_940/512x512/Conv0/transpose/perm", "shape": [4], "dtype": "int32"}, {"name": "progan/Run/progan/cond/then/_0/cond/then/_169/cond/then/_332/cond/then/_511/cond/then/_672/cond/then/_815/cond/then/_940/512x512/Conv0/mul", "shape": [3, 3, 64, 32], "dtype": "float32"}, {"name": "progan/Run/progan/cond/then/_0/cond/then/_169/cond/then/_332/cond/then/_511/cond/then/_672/cond/then/_815/cond/then/_940/512x512/Conv0/transpose_1/perm", "shape": [4], "dtype": "int32"}, {"name": "progan/Run/progan/cond/then/_0/cond/then/_169/cond/then/_332/cond/then/_511/cond/then/_672/cond/then/_815/cond/then/_940/512x512/Conv0/Reshape", "shape": [1, 32, 1, 1], "dtype": "float32"}, {"name": "progan/Run/progan/cond/then/_0/cond/then/_169/cond/then/_332/cond/then/_511/cond/then/_672/cond/then/_815/cond/then/_940/512x512/Conv0/PixelNorm/Mean/reduction_indices", "shape": [], "dtype": "int32"}, {"name": "progan/Run/progan/cond/then/_0/cond/then/_169/cond/then/_332/cond/then/_511/cond/then/_672/cond/then/_815/cond/then/_940/512x512/Conv0/PixelNorm/add/y", "shape": [], "dtype": "float32"}, {"name": "progan/Run/progan/cond/then/_0/cond/then/_169/cond/then/_332/cond/then/_511/cond/then/_672/cond/then/_815/cond/then/_940/512x512/Conv1/transpose/perm", "shape": [4], "dtype": "int32"}, {"name": "progan/Run/progan/cond/then/_0/cond/then/_169/cond/then/_332/cond/then/_511/cond/then/_672/cond/then/_815/cond/then/_940/512x512/Conv1/mul", "shape": [3, 3, 32, 32], "dtype": "float32"}, {"name": "progan/Run/progan/cond/then/_0/cond/then/_169/cond/then/_332/cond/then/_511/cond/then/_672/cond/then/_815/cond/then/_940/512x512/Conv1/transpose_1/perm", "shape": [4], "dtype": "int32"}, {"name": "progan/Run/progan/cond/then/_0/cond/then/_169/cond/then/_332/cond/then/_511/cond/then/_672/cond/then/_815/cond/then/_940/512x512/Conv1/Reshape", "shape": [1, 32, 1, 1], "dtype": "float32"}, {"name": "progan/Run/progan/cond/then/_0/cond/then/_169/cond/then/_332/cond/then/_511/cond/then/_672/cond/then/_815/cond/then/_940/512x512/Conv1/PixelNorm/Mean/reduction_indices", "shape": [], "dtype": "int32"}, {"name": "progan/Run/progan/cond/then/_0/cond/then/_169/cond/then/_332/cond/then/_511/cond/then/_672/cond/then/_815/cond/then/_940/512x512/Conv1/PixelNorm/add/y", "shape": [], "dtype": "float32"}, {"name": "progan/Run/progan/cond/then/_0/cond/then/_169/cond/then/_332/cond/then/_511/cond/then/_672/cond/then/_815/cond/else/_941/cond/else/_1069/ToRGB_lod2/transpose/perm", "shape": [4], "dtype": "int32"}, {"name": "progan/Run/progan/cond/then/_0/cond/then/_169/cond/then/_332/cond/then/_511/cond/then/_672/cond/then/_815/cond/else/_941/cond/else/_1069/ToRGB_lod2/wscale", "shape": [], "dtype": "float32"}, {"name": "progan/Run/progan/cond/then/_0/cond/then/_169/cond/then/_332/cond/then/_511/cond/then/_672/cond/then/_815/cond/else/_941/cond/else/_1069/ToRGB_lod2/transpose_1/perm", "shape": [4], "dtype": "int32"}, {"name": "progan/Run/progan/cond/then/_0/cond/then/_169/cond/then/_332/cond/then/_511/cond/then/_672/cond/then/_815/cond/else/_941/cond/else/_1069/ToRGB_lod2/Reshape/shape", "shape": [4], "dtype": "int32"}, {"name": "progan/Run/progan/cond/then/_0/cond/then/_169/cond/then/_332/cond/then/_511/cond/then/_672/cond/then/_815/cond/else/_941/cond/else/_1069/Upscale2D/Reshape/shape", "shape": [6], "dtype": "int32"}, {"name": "progan/Run/progan/cond/then/_0/cond/then/_169/cond/then/_332/cond/then/_511/cond/then/_672/cond/then/_815/cond/else/_941/cond/else/_1069/Upscale2D/Tile/multiples", "shape": [6], "dtype": "int32"}, {"name": "progan/Run/progan/cond/then/_0/cond/then/_169/cond/then/_332/cond/then/_511/cond/then/_672/cond/then/_815/cond/else/_941/cond/else/_1069/Upscale2D/Reshape_1/shape", "shape": [4], "dtype": "int32"}, {"name": "progan/Run/progan/cond/then/_0/cond/then/_169/cond/then/_332/cond/then/_511/cond/then/_672/cond/then/_815/cond/else/_941/cond/then/_1068/ToRGB_lod3/transpose/perm", "shape": [4], "dtype": "int32"}, {"name": "progan/Run/progan/cond/then/_0/cond/then/_169/cond/then/_332/cond/then/_511/cond/then/_672/cond/then/_815/cond/else/_941/cond/then/_1068/ToRGB_lod3/wscale", "shape": [], "dtype": "float32"}, {"name": "progan/Run/progan/cond/then/_0/cond/then/_169/cond/then/_332/cond/then/_511/cond/then/_672/cond/then/_815/cond/else/_941/cond/then/_1068/ToRGB_lod3/transpose_1/perm", "shape": [4], "dtype": "int32"}, {"name": "progan/Run/progan/cond/then/_0/cond/then/_169/cond/then/_332/cond/then/_511/cond/then/_672/cond/then/_815/cond/else/_941/cond/then/_1068/ToRGB_lod3/Reshape/shape", "shape": [4], "dtype": "int32"}, {"name": "progan/Run/progan/cond/then/_0/cond/then/_169/cond/then/_332/cond/then/_511/cond/then/_672/cond/then/_815/cond/else/_941/cond/then/_1068/Upscale2D/Reshape/shape", "shape": [6], "dtype": "int32"}, {"name": "progan/Run/progan/cond/then/_0/cond/then/_169/cond/then/_332/cond/then/_511/cond/then/_672/cond/then/_815/cond/else/_941/cond/then/_1068/Upscale2D/Tile/multiples", "shape": [6], "dtype": "int32"}, {"name": "progan/Run/progan/cond/then/_0/cond/then/_169/cond/then/_332/cond/then/_511/cond/then/_672/cond/then/_815/cond/else/_941/cond/then/_1068/Upscale2D/Reshape_1/shape", "shape": [4], "dtype": "int32"}, {"name": "progan/Run/progan/cond/then/_0/cond/then/_169/cond/then/_332/cond/then/_511/cond/then/_672/cond/then/_815/cond/else/_941/cond/then/_1068/ToRGB_lod2/transpose/perm", "shape": [4], "dtype": "int32"}, {"name": "progan/Run/progan/cond/then/_0/cond/then/_169/cond/then/_332/cond/then/_511/cond/then/_672/cond/then/_815/cond/else/_941/cond/then/_1068/ToRGB_lod2/wscale", "shape": [], "dtype": "float32"}, {"name": "progan/Run/progan/cond/then/_0/cond/then/_169/cond/then/_332/cond/then/_511/cond/then/_672/cond/then/_815/cond/else/_941/cond/then/_1068/ToRGB_lod2/transpose_1/perm", "shape": [4], "dtype": "int32"}, {"name": "progan/Run/progan/cond/then/_0/cond/then/_169/cond/then/_332/cond/then/_511/cond/then/_672/cond/then/_815/cond/else/_941/cond/then/_1068/ToRGB_lod2/Reshape/shape", "shape": [4], "dtype": "int32"}, {"name": "progan/Run/progan/cond/then/_0/cond/then/_169/cond/then/_332/cond/then/_511/cond/then/_672/cond/then/_815/cond/else/_941/cond/then/_1068/sub/y", "shape": [], "dtype": "float32"}, {"name": "progan/Run/progan/cond/then/_0/cond/then/_169/cond/then/_332/cond/then/_511/cond/then/_672/cond/then/_815/cond/else/_941/cond/then/_1068/Upscale2D_1/Reshape/shape", "shape": [6], "dtype": "int32"}, {"name": "progan/Run/progan/cond/then/_0/cond/then/_169/cond/then/_332/cond/then/_511/cond/then/_672/cond/then/_815/cond/else/_941/cond/then/_1068/Upscale2D_1/Tile/multiples", "shape": [6], "dtype": "int32"}, {"name": "progan/Run/progan/cond/then/_0/cond/then/_169/cond/then/_332/cond/then/_511/cond/then/_672/cond/then/_815/cond/else/_941/cond/then/_1068/Upscale2D_1/Reshape_1/shape", "shape": [4], "dtype": "int32"}, {"name": "progan/Run/progan/cond/then/_0/cond/then/_169/cond/then/_332/cond/then/_511/cond/then/_672/cond/then/_815/cond/then/_940/cond/then/_1047/Greater", "shape": [], "dtype": "bool"}, {"name": "Func/progan/Run/progan/cond/then/_0/cond/then/_169/cond/then/_332/cond/then/_511/cond/then/_672/cond/then/_815/cond/then/_940/cond/then/_1047/input/_1091", "shape": [1, 1, 32, 3], "dtype": "float32"}, {"name": "Func/progan/Run/progan/cond/then/_0/cond/then/_169/cond/then/_332/cond/then/_511/cond/then/_672/cond/then/_815/cond/then/_940/cond/then/_1047/input/_1092", "shape": [3], "dtype": "float32"}, {"name": "progan/Run/progan/cond/then/_0/cond/then/_169/cond/then/_332/cond/then/_511/cond/then/_672/cond/then/_815/cond/then/_940/cond/then/_1047/1024x1024/Conv1/LeakyRelu/alpha", "shape": [], "dtype": "float32"}, {"name": "progan/Run/progan/cond/then/_0/cond/then/_169/cond/then/_332/cond/then/_511/cond/then/_672/cond/then/_815/cond/then/_940/cond/then/_1047/1024x1024/Conv0/LeakyRelu/alpha", "shape": [], "dtype": "float32"}, {"name": "progan/Run/progan/cond/then/_0/cond/then/_169/cond/then/_332/cond/then/_511/cond/then/_672/cond/then/_815/cond/then/_940/cond/then/_1047/1024x1024/Upscale2D/Reshape/shape", "shape": [6], "dtype": "int32"}, {"name": "progan/Run/progan/cond/then/_0/cond/then/_169/cond/then/_332/cond/then/_511/cond/then/_672/cond/then/_815/cond/then/_940/cond/then/_1047/1024x1024/Upscale2D/Tile/multiples", "shape": [6], "dtype": "int32"}, {"name": "progan/Run/progan/cond/then/_0/cond/then/_169/cond/then/_332/cond/then/_511/cond/then/_672/cond/then/_815/cond/then/_940/cond/then/_1047/1024x1024/Upscale2D/Reshape_1/shape", "shape": [4], "dtype": "int32"}, {"name": "progan/Run/progan/cond/then/_0/cond/then/_169/cond/then/_332/cond/then/_511/cond/then/_672/cond/then/_815/cond/then/_940/cond/then/_1047/1024x1024/Conv0/transpose/perm", "shape": [4], "dtype": "int32"}, {"name": "progan/Run/progan/cond/then/_0/cond/then/_169/cond/then/_332/cond/then/_511/cond/then/_672/cond/then/_815/cond/then/_940/cond/then/_1047/1024x1024/Conv0/mul", "shape": [3, 3, 32, 16], "dtype": "float32"}, {"name": "progan/Run/progan/cond/then/_0/cond/then/_169/cond/then/_332/cond/then/_511/cond/then/_672/cond/then/_815/cond/then/_940/cond/then/_1047/1024x1024/Conv0/transpose_1/perm", "shape": [4], "dtype": "int32"}, {"name": "progan/Run/progan/cond/then/_0/cond/then/_169/cond/then/_332/cond/then/_511/cond/then/_672/cond/then/_815/cond/then/_940/cond/then/_1047/1024x1024/Conv0/Reshape", "shape": [1, 16, 1, 1], "dtype": "float32"}, {"name": "progan/Run/progan/cond/then/_0/cond/then/_169/cond/then/_332/cond/then/_511/cond/then/_672/cond/then/_815/cond/then/_940/cond/then/_1047/1024x1024/Conv0/PixelNorm/Mean/reduction_indices", "shape": [], "dtype": "int32"}, {"name": "progan/Run/progan/cond/then/_0/cond/then/_169/cond/then/_332/cond/then/_511/cond/then/_672/cond/then/_815/cond/then/_940/cond/then/_1047/1024x1024/Conv0/PixelNorm/add/y", "shape": [], "dtype": "float32"}, {"name": "progan/Run/progan/cond/then/_0/cond/then/_169/cond/then/_332/cond/then/_511/cond/then/_672/cond/then/_815/cond/then/_940/cond/then/_1047/1024x1024/Conv1/transpose/perm", "shape": [4], "dtype": "int32"}, {"name": "progan/Run/progan/cond/then/_0/cond/then/_169/cond/then/_332/cond/then/_511/cond/then/_672/cond/then/_815/cond/then/_940/cond/then/_1047/1024x1024/Conv1/mul", "shape": [3, 3, 16, 16], "dtype": "float32"}, {"name": "progan/Run/progan/cond/then/_0/cond/then/_169/cond/then/_332/cond/then/_511/cond/then/_672/cond/then/_815/cond/then/_940/cond/then/_1047/1024x1024/Conv1/transpose_1/perm", "shape": [4], "dtype": "int32"}, {"name": "progan/Run/progan/cond/then/_0/cond/then/_169/cond/then/_332/cond/then/_511/cond/then/_672/cond/then/_815/cond/then/_940/cond/then/_1047/1024x1024/Conv1/Reshape", "shape": [1, 16, 1, 1], "dtype": "float32"}, {"name": "progan/Run/progan/cond/then/_0/cond/then/_169/cond/then/_332/cond/then/_511/cond/then/_672/cond/then/_815/cond/then/_940/cond/then/_1047/1024x1024/Conv1/PixelNorm/Mean/reduction_indices", "shape": [], "dtype": "int32"}, {"name": "progan/Run/progan/cond/then/_0/cond/then/_169/cond/then/_332/cond/then/_511/cond/then/_672/cond/then/_815/cond/then/_940/cond/then/_1047/1024x1024/Conv1/PixelNorm/add/y", "shape": [], "dtype": "float32"}, {"name": "Func/progan/Run/progan/cond/then/_0/cond/then/_169/cond/then/_332/cond/then/_511/cond/then/_672/cond/then/_815/cond/then/_940/cond/then/_1047/input/_1088", "shape": [], "dtype": "float32"}, {"name": "Func/progan/Run/progan/cond/then/_0/cond/then/_169/cond/then/_332/cond/then/_511/cond/then/_672/cond/then/_815/cond/then/_940/cond/then/_1047/input/_1089", "shape": [1, 1, 16, 3], "dtype": "float32"}, {"name": "Func/progan/Run/progan/cond/then/_0/cond/then/_169/cond/then/_332/cond/then/_511/cond/then/_672/cond/then/_815/cond/then/_940/cond/then/_1047/input/_1090", "shape": [3], "dtype": "float32"}, {"name": "progan/Run/progan/cond/then/_0/cond/then/_169/cond/then/_332/cond/then/_511/cond/then/_672/cond/then/_815/cond/then/_940/cond/else/_1048/cond/else/_1151/ToRGB_lod1/transpose/perm", "shape": [4], "dtype": "int32"}, {"name": "progan/Run/progan/cond/then/_0/cond/then/_169/cond/then/_332/cond/then/_511/cond/then/_672/cond/then/_815/cond/then/_940/cond/else/_1048/cond/else/_1151/ToRGB_lod1/wscale", "shape": [], "dtype": "float32"}, {"name": "progan/Run/progan/cond/then/_0/cond/then/_169/cond/then/_332/cond/then/_511/cond/then/_672/cond/then/_815/cond/then/_940/cond/else/_1048/cond/else/_1151/ToRGB_lod1/transpose_1/perm", "shape": [4], "dtype": "int32"}, {"name": "progan/Run/progan/cond/then/_0/cond/then/_169/cond/then/_332/cond/then/_511/cond/then/_672/cond/then/_815/cond/then/_940/cond/else/_1048/cond/else/_1151/ToRGB_lod1/Reshape/shape", "shape": [4], "dtype": "int32"}, {"name": "progan/Run/progan/cond/then/_0/cond/then/_169/cond/then/_332/cond/then/_511/cond/then/_672/cond/then/_815/cond/then/_940/cond/else/_1048/cond/else/_1151/Upscale2D/Reshape/shape", "shape": [6], "dtype": "int32"}, {"name": "progan/Run/progan/cond/then/_0/cond/then/_169/cond/then/_332/cond/then/_511/cond/then/_672/cond/then/_815/cond/then/_940/cond/else/_1048/cond/else/_1151/Upscale2D/Tile/multiples", "shape": [6], "dtype": "int32"}, {"name": "progan/Run/progan/cond/then/_0/cond/then/_169/cond/then/_332/cond/then/_511/cond/then/_672/cond/then/_815/cond/then/_940/cond/else/_1048/cond/else/_1151/Upscale2D/Reshape_1/shape", "shape": [4], "dtype": "int32"}, {"name": "progan/Run/progan/cond/then/_0/cond/then/_169/cond/then/_332/cond/then/_511/cond/then/_672/cond/then/_815/cond/then/_940/cond/else/_1048/cond/then/_1150/ToRGB_lod2/transpose/perm", "shape": [4], "dtype": "int32"}, {"name": "progan/Run/progan/cond/then/_0/cond/then/_169/cond/then/_332/cond/then/_511/cond/then/_672/cond/then/_815/cond/then/_940/cond/else/_1048/cond/then/_1150/ToRGB_lod2/wscale", "shape": [], "dtype": "float32"}, {"name": "progan/Run/progan/cond/then/_0/cond/then/_169/cond/then/_332/cond/then/_511/cond/then/_672/cond/then/_815/cond/then/_940/cond/else/_1048/cond/then/_1150/ToRGB_lod2/transpose_1/perm", "shape": [4], "dtype": "int32"}, {"name": "progan/Run/progan/cond/then/_0/cond/then/_169/cond/then/_332/cond/then/_511/cond/then/_672/cond/then/_815/cond/then/_940/cond/else/_1048/cond/then/_1150/ToRGB_lod2/Reshape/shape", "shape": [4], "dtype": "int32"}, {"name": "progan/Run/progan/cond/then/_0/cond/then/_169/cond/then/_332/cond/then/_511/cond/then/_672/cond/then/_815/cond/then/_940/cond/else/_1048/cond/then/_1150/Upscale2D/Reshape/shape", "shape": [6], "dtype": "int32"}, {"name": "progan/Run/progan/cond/then/_0/cond/then/_169/cond/then/_332/cond/then/_511/cond/then/_672/cond/then/_815/cond/then/_940/cond/else/_1048/cond/then/_1150/Upscale2D/Tile/multiples", "shape": [6], "dtype": "int32"}, {"name": "progan/Run/progan/cond/then/_0/cond/then/_169/cond/then/_332/cond/then/_511/cond/then/_672/cond/then/_815/cond/then/_940/cond/else/_1048/cond/then/_1150/Upscale2D/Reshape_1/shape", "shape": [4], "dtype": "int32"}, {"name": "progan/Run/progan/cond/then/_0/cond/then/_169/cond/then/_332/cond/then/_511/cond/then/_672/cond/then/_815/cond/then/_940/cond/else/_1048/cond/then/_1150/ToRGB_lod1/transpose/perm", "shape": [4], "dtype": "int32"}, {"name": "progan/Run/progan/cond/then/_0/cond/then/_169/cond/then/_332/cond/then/_511/cond/then/_672/cond/then/_815/cond/then/_940/cond/else/_1048/cond/then/_1150/ToRGB_lod1/wscale", "shape": [], "dtype": "float32"}, {"name": "progan/Run/progan/cond/then/_0/cond/then/_169/cond/then/_332/cond/then/_511/cond/then/_672/cond/then/_815/cond/then/_940/cond/else/_1048/cond/then/_1150/ToRGB_lod1/transpose_1/perm", "shape": [4], "dtype": "int32"}, {"name": "progan/Run/progan/cond/then/_0/cond/then/_169/cond/then/_332/cond/then/_511/cond/then/_672/cond/then/_815/cond/then/_940/cond/else/_1048/cond/then/_1150/ToRGB_lod1/Reshape/shape", "shape": [4], "dtype": "int32"}, {"name": "progan/Run/progan/cond/then/_0/cond/then/_169/cond/then/_332/cond/then/_511/cond/then/_672/cond/then/_815/cond/then/_940/cond/else/_1048/cond/then/_1150/sub/y", "shape": [], "dtype": "float32"}, {"name": "progan/Run/progan/cond/then/_0/cond/then/_169/cond/then/_332/cond/then/_511/cond/then/_672/cond/then/_815/cond/then/_940/cond/else/_1048/cond/then/_1150/Upscale2D_1/Reshape/shape", "shape": [6], "dtype": "int32"}, {"name": "progan/Run/progan/cond/then/_0/cond/then/_169/cond/then/_332/cond/then/_511/cond/then/_672/cond/then/_815/cond/then/_940/cond/else/_1048/cond/then/_1150/Upscale2D_1/Tile/multiples", "shape": [6], "dtype": "int32"}, {"name": "progan/Run/progan/cond/then/_0/cond/then/_169/cond/then/_332/cond/then/_511/cond/then/_672/cond/then/_815/cond/then/_940/cond/else/_1048/cond/then/_1150/Upscale2D_1/Reshape_1/shape", "shape": [4], "dtype": "int32"}, {"name": "progan/Run/progan/cond/then/_0/cond/then/_169/cond/then/_332/cond/then/_511/cond/then/_672/cond/then/_815/cond/then/_940/cond/then/_1047/cond/else/_1137/ToRGB_lod0/transpose/perm", "shape": [4], "dtype": "int32"}, {"name": "progan/Run/progan/cond/then/_0/cond/then/_169/cond/then/_332/cond/then/_511/cond/then/_672/cond/then/_815/cond/then/_940/cond/then/_1047/cond/else/_1137/ToRGB_lod0/mul", "shape": [1, 1, 16, 3], "dtype": "float32"}, {"name": "progan/Run/progan/cond/then/_0/cond/then/_169/cond/then/_332/cond/then/_511/cond/then/_672/cond/then/_815/cond/then/_940/cond/then/_1047/cond/else/_1137/ToRGB_lod0/transpose_1/perm", "shape": [4], "dtype": "int32"}, {"name": "progan/Run/progan/cond/then/_0/cond/then/_169/cond/then/_332/cond/then/_511/cond/then/_672/cond/then/_815/cond/then/_940/cond/then/_1047/cond/else/_1137/ToRGB_lod0/Reshape", "shape": [1, 3, 1, 1], "dtype": "float32"}, {"name": "progan/Run/progan/cond/then/_0/cond/then/_169/cond/then/_332/cond/then/_511/cond/then/_672/cond/then/_815/cond/then/_940/cond/then/_1047/cond/then/_1136/ToRGB_lod1/transpose/perm", "shape": [4], "dtype": "int32"}, {"name": "progan/Run/progan/cond/then/_0/cond/then/_169/cond/then/_332/cond/then/_511/cond/then/_672/cond/then/_815/cond/then/_940/cond/then/_1047/cond/then/_1136/ToRGB_lod1/wscale", "shape": [], "dtype": "float32"}, {"name": "progan/Run/progan/cond/then/_0/cond/then/_169/cond/then/_332/cond/then/_511/cond/then/_672/cond/then/_815/cond/then/_940/cond/then/_1047/cond/then/_1136/ToRGB_lod1/transpose_1/perm", "shape": [4], "dtype": "int32"}, {"name": "progan/Run/progan/cond/then/_0/cond/then/_169/cond/then/_332/cond/then/_511/cond/then/_672/cond/then/_815/cond/then/_940/cond/then/_1047/cond/then/_1136/ToRGB_lod1/Reshape/shape", "shape": [4], "dtype": "int32"}, {"name": "progan/Run/progan/cond/then/_0/cond/then/_169/cond/then/_332/cond/then/_511/cond/then/_672/cond/then/_815/cond/then/_940/cond/then/_1047/cond/then/_1136/Upscale2D/Reshape/shape", "shape": [6], "dtype": "int32"}, {"name": "progan/Run/progan/cond/then/_0/cond/then/_169/cond/then/_332/cond/then/_511/cond/then/_672/cond/then/_815/cond/then/_940/cond/then/_1047/cond/then/_1136/Upscale2D/Tile/multiples", "shape": [6], "dtype": "int32"}, {"name": "progan/Run/progan/cond/then/_0/cond/then/_169/cond/then/_332/cond/then/_511/cond/then/_672/cond/then/_815/cond/then/_940/cond/then/_1047/cond/then/_1136/Upscale2D/Reshape_1/shape", "shape": [4], "dtype": "int32"}, {"name": "progan/Run/progan/cond/then/_0/cond/then/_169/cond/then/_332/cond/then/_511/cond/then/_672/cond/then/_815/cond/then/_940/cond/then/_1047/cond/then/_1136/ToRGB_lod0/transpose/perm", "shape": [4], "dtype": "int32"}, {"name": "progan/Run/progan/cond/then/_0/cond/then/_169/cond/then/_332/cond/then/_511/cond/then/_672/cond/then/_815/cond/then/_940/cond/then/_1047/cond/then/_1136/ToRGB_lod0/wscale", "shape": [], "dtype": "float32"}, {"name": "progan/Run/progan/cond/then/_0/cond/then/_169/cond/then/_332/cond/then/_511/cond/then/_672/cond/then/_815/cond/then/_940/cond/then/_1047/cond/then/_1136/ToRGB_lod0/transpose_1/perm", "shape": [4], "dtype": "int32"}, {"name": "progan/Run/progan/cond/then/_0/cond/then/_169/cond/then/_332/cond/then/_511/cond/then/_672/cond/then/_815/cond/then/_940/cond/then/_1047/cond/then/_1136/ToRGB_lod0/Reshape/shape", "shape": [4], "dtype": "int32"}]}]}